name: "coco_refinedet_resnet101_320x320_deploy"
input: "data"
input_shape {
  dim: 1
  dim: 3
  dim: 320
  dim: 320
}
layer {
  name: "conv1"
  type: "Convolution"
  bottom: "data"
  top: "conv1"
  param {
    lr_mult: 1
    decay_mult: 1
  }
  convolution_param {
    num_output: 32
    bias_term: false
    pad: 1
    kernel_size: 3
    stride: 2
    weight_filler {
      type: "msra"
    }
  }
}
layer {
  name: "conv1/bn"
  type: "BatchNorm"
  bottom: "conv1"
  top: "conv1/bn"
  param {
    lr_mult: 0
    decay_mult: 0
  }
  param {
    lr_mult: 0
    decay_mult: 0
  }
  param {
    lr_mult: 0
    decay_mult: 0
  }
  batch_norm_param {
    use_global_stats: true
    eps: 1e-5
  }
}
layer {
  name: "conv1/scale"
  type: "Scale"
  bottom: "conv1/bn"
  top: "conv1/bn"
  param {
    lr_mult: 1
    decay_mult: 0
  }
  param {
    lr_mult: 1
    decay_mult: 0
  }
  scale_param {
    bias_term: true
  }
}
layer {
  name: "relu1"
  type: "ReLU"
  bottom: "conv1/bn"
  top: "conv1/bn"
}
layer {
  name: "conv2_1/expand"
  type: "Convolution"
  bottom: "conv1/bn"
  top: "conv2_1/expand"
  param {
    lr_mult: 1
    decay_mult: 1
  }
  convolution_param {
    num_output: 32
    bias_term: false
    kernel_size: 1
    weight_filler {
      type: "msra"
    }
  }
}
layer {
  name: "conv2_1/expand/bn"
  type: "BatchNorm"
  bottom: "conv2_1/expand"
  top: "conv2_1/expand/bn"
  param {
    lr_mult: 0
    decay_mult: 0
  }
  param {
    lr_mult: 0
    decay_mult: 0
  }
  param {
    lr_mult: 0
    decay_mult: 0
  }
  batch_norm_param {
    use_global_stats: true
    eps: 1e-5
  }
}
layer {
  name: "conv2_1/expand/scale"
  type: "Scale"
  bottom: "conv2_1/expand/bn"
  top: "conv2_1/expand/bn"
  param {
    lr_mult: 1
    decay_mult: 0
  }
  param {
    lr_mult: 1
    decay_mult: 0
  }
  scale_param {
    bias_term: true
  }
}
layer {
  name: "relu2_1/expand"
  type: "ReLU"
  bottom: "conv2_1/expand/bn"
  top: "conv2_1/expand/bn"
}
layer {
  name: "conv2_1/dwise"
  type: "DepthwiseConvolution"
  bottom: "conv2_1/expand/bn"
  top: "conv2_1/dwise"
  param {
    lr_mult: 1
    decay_mult: 1
  }
  convolution_param {
    num_output: 32
    bias_term: false
    pad: 1
    kernel_size: 3
    group: 32
    weight_filler {
      type: "msra"
    }
    engine: CAFFE
  }
}
layer {
  name: "conv2_1/dwise/bn"
  type: "BatchNorm"
  bottom: "conv2_1/dwise"
  top: "conv2_1/dwise/bn"
  param {
    lr_mult: 0
    decay_mult: 0
  }
  param {
    lr_mult: 0
    decay_mult: 0
  }
  param {
    lr_mult: 0
    decay_mult: 0
  }
  batch_norm_param {
    use_global_stats: true
    eps: 1e-5
  }
}
layer {
  name: "conv2_1/dwise/scale"
  type: "Scale"
  bottom: "conv2_1/dwise/bn"
  top: "conv2_1/dwise/bn"
  param {
    lr_mult: 1
    decay_mult: 0
  }
  param {
    lr_mult: 1
    decay_mult: 0
  }
  scale_param {
    bias_term: true
  }
}
layer {
  name: "relu2_1/dwise"
  type: "ReLU"
  bottom: "conv2_1/dwise/bn"
  top: "conv2_1/dwise/bn"
}
layer {
  name: "conv2_1/linear"
  type: "Convolution"
  bottom: "conv2_1/dwise/bn"
  top: "conv2_1/linear"
  param {
    lr_mult: 1
    decay_mult: 1
  }
  convolution_param {
    num_output: 16
    bias_term: false
    kernel_size: 1
    weight_filler {
      type: "msra"
    }
  }
}
layer {
  name: "conv2_1/linear/bn"
  type: "BatchNorm"
  bottom: "conv2_1/linear"
  top: "conv2_1/linear/bn"
  param {
    lr_mult: 0
    decay_mult: 0
  }
  param {
    lr_mult: 0
    decay_mult: 0
  }
  param {
    lr_mult: 0
    decay_mult: 0
  }
  batch_norm_param {
    use_global_stats: true
    eps: 1e-5
  }
}
layer {
  name: "conv2_1/linear/scale"
  type: "Scale"
  bottom: "conv2_1/linear/bn"
  top: "conv2_1/linear/bn"
  param {
    lr_mult: 1
    decay_mult: 0
  }
  param {
    lr_mult: 1
    decay_mult: 0
  }
  scale_param {
    bias_term: true
  }
}
layer {
  name: "conv2_2/expand"
  type: "Convolution"
  bottom: "conv2_1/linear/bn"
  top: "conv2_2/expand"
  param {
    lr_mult: 1
    decay_mult: 1
  }
  convolution_param {
    num_output: 96
    bias_term: false
    kernel_size: 1
    weight_filler {
      type: "msra"
    }
  }
}
layer {
  name: "conv2_2/expand/bn"
  type: "BatchNorm"
  bottom: "conv2_2/expand"
  top: "conv2_2/expand/bn"
  param {
    lr_mult: 0
    decay_mult: 0
  }
  param {
    lr_mult: 0
    decay_mult: 0
  }
  param {
    lr_mult: 0
    decay_mult: 0
  }
  batch_norm_param {
    use_global_stats: true
    eps: 1e-5
  }
}
layer {
  name: "conv2_2/expand/scale"
  type: "Scale"
  bottom: "conv2_2/expand/bn"
  top: "conv2_2/expand/bn"
  param {
    lr_mult: 1
    decay_mult: 0
  }
  param {
    lr_mult: 1
    decay_mult: 0
  }
  scale_param {
    bias_term: true
  }
}
layer {
  name: "relu2_2/expand"
  type: "ReLU"
  bottom: "conv2_2/expand/bn"
  top: "conv2_2/expand/bn"
}
layer {
  name: "conv2_2/dwise"
  type: "DepthwiseConvolution"
  bottom: "conv2_2/expand/bn"
  top: "conv2_2/dwise"
  param {
    lr_mult: 1
    decay_mult: 1
  }
  convolution_param {
    num_output: 96
    bias_term: false
    pad: 1
    kernel_size: 3
    group: 96
    stride: 2
    weight_filler {
      type: "msra"
    }
    engine: CAFFE
  }
}
layer {
  name: "conv2_2/dwise/bn"
  type: "BatchNorm"
  bottom: "conv2_2/dwise"
  top: "conv2_2/dwise/bn"
  param {
    lr_mult: 0
    decay_mult: 0
  }
  param {
    lr_mult: 0
    decay_mult: 0
  }
  param {
    lr_mult: 0
    decay_mult: 0
  }
  batch_norm_param {
    use_global_stats: true
    eps: 1e-5
  }
}
layer {
  name: "conv2_2/dwise/scale"
  type: "Scale"
  bottom: "conv2_2/dwise/bn"
  top: "conv2_2/dwise/bn"
  param {
    lr_mult: 1
    decay_mult: 0
  }
  param {
    lr_mult: 1
    decay_mult: 0
  }
  scale_param {
    bias_term: true
  }
}
layer {
  name: "relu2_2/dwise"
  type: "ReLU"
  bottom: "conv2_2/dwise/bn"
  top: "conv2_2/dwise/bn"
}
layer {
  name: "conv2_2/linear"
  type: "Convolution"
  bottom: "conv2_2/dwise/bn"
  top: "conv2_2/linear"
  param {
    lr_mult: 1
    decay_mult: 1
  }
  convolution_param {
    num_output: 24
    bias_term: false
    kernel_size: 1
    weight_filler {
      type: "msra"
    }
  }
}
layer {
  name: "conv2_2/linear/bn"
  type: "BatchNorm"
  bottom: "conv2_2/linear"
  top: "conv2_2/linear/bn"
  param {
    lr_mult: 0
    decay_mult: 0
  }
  param {
    lr_mult: 0
    decay_mult: 0
  }
  param {
    lr_mult: 0
    decay_mult: 0
  }
  batch_norm_param {
    use_global_stats: true
    eps: 1e-5
  }
}
layer {
  name: "conv2_2/linear/scale"
  type: "Scale"
  bottom: "conv2_2/linear/bn"
  top: "conv2_2/linear/bn"
  param {
    lr_mult: 1
    decay_mult: 0
  }
  param {
    lr_mult: 1
    decay_mult: 0
  }
  scale_param {
    bias_term: true
  }
}
layer {
  name: "conv3_1/expand"
  type: "Convolution"
  bottom: "conv2_2/linear/bn"
  top: "conv3_1/expand"
  param {
    lr_mult: 1
    decay_mult: 1
  }
  convolution_param {
    num_output: 144
    bias_term: false
    kernel_size: 1
    weight_filler {
      type: "msra"
    }
  }
}
layer {
  name: "conv3_1/expand/bn"
  type: "BatchNorm"
  bottom: "conv3_1/expand"
  top: "conv3_1/expand/bn"
  param {
    lr_mult: 0
    decay_mult: 0
  }
  param {
    lr_mult: 0
    decay_mult: 0
  }
  param {
    lr_mult: 0
    decay_mult: 0
  }
  batch_norm_param {
    use_global_stats: true
    eps: 1e-5
  }
}
layer {
  name: "conv3_1/expand/scale"
  type: "Scale"
  bottom: "conv3_1/expand/bn"
  top: "conv3_1/expand/bn"
  param {
    lr_mult: 1
    decay_mult: 0
  }
  param {
    lr_mult: 1
    decay_mult: 0
  }
  scale_param {
    bias_term: true
  }
}
layer {
  name: "relu3_1/expand"
  type: "ReLU"
  bottom: "conv3_1/expand/bn"
  top: "conv3_1/expand/bn"
}
layer {
  name: "conv3_1/dwise"
  type: "DepthwiseConvolution"
  bottom: "conv3_1/expand/bn"
  top: "conv3_1/dwise"
  param {
    lr_mult: 1
    decay_mult: 1
  }
  convolution_param {
    num_output: 144
    bias_term: false
    pad: 1
    kernel_size: 3
    group: 144
    weight_filler {
      type: "msra"
    }
    engine: CAFFE
  }
}
layer {
  name: "conv3_1/dwise/bn"
  type: "BatchNorm"
  bottom: "conv3_1/dwise"
  top: "conv3_1/dwise/bn"
  param {
    lr_mult: 0
    decay_mult: 0
  }
  param {
    lr_mult: 0
    decay_mult: 0
  }
  param {
    lr_mult: 0
    decay_mult: 0
  }
  batch_norm_param {
    use_global_stats: true
    eps: 1e-5
  }
}
layer {
  name: "conv3_1/dwise/scale"
  type: "Scale"
  bottom: "conv3_1/dwise/bn"
  top: "conv3_1/dwise/bn"
  param {
    lr_mult: 1
    decay_mult: 0
  }
  param {
    lr_mult: 1
    decay_mult: 0
  }
  scale_param {
    bias_term: true
  }
}
layer {
  name: "relu3_1/dwise"
  type: "ReLU"
  bottom: "conv3_1/dwise/bn"
  top: "conv3_1/dwise/bn"
}
layer {
  name: "conv3_1/linear"
  type: "Convolution"
  bottom: "conv3_1/dwise/bn"
  top: "conv3_1/linear"
  param {
    lr_mult: 1
    decay_mult: 1
  }
  convolution_param {
    num_output: 24
    bias_term: false
    kernel_size: 1
    weight_filler {
      type: "msra"
    }
  }
}
layer {
  name: "conv3_1/linear/bn"
  type: "BatchNorm"
  bottom: "conv3_1/linear"
  top: "conv3_1/linear/bn"
  param {
    lr_mult: 0
    decay_mult: 0
  }
  param {
    lr_mult: 0
    decay_mult: 0
  }
  param {
    lr_mult: 0
    decay_mult: 0
  }
  batch_norm_param {
    use_global_stats: true
    eps: 1e-5
  }
}
layer {
  name: "conv3_1/linear/scale"
  type: "Scale"
  bottom: "conv3_1/linear/bn"
  top: "conv3_1/linear/bn"
  param {
    lr_mult: 1
    decay_mult: 0
  }
  param {
    lr_mult: 1
    decay_mult: 0
  }
  scale_param {
    bias_term: true
  }
}
layer {
  name: "block_3_1"
  type: "Eltwise"
  bottom: "conv2_2/linear/bn"
  bottom: "conv3_1/linear/bn"
  top: "block_3_1"
}
layer {
  name: "conv3_2/expand"
  type: "Convolution"
  bottom: "block_3_1"
  top: "conv3_2/expand"
  param {
    lr_mult: 1
    decay_mult: 1
  }
  convolution_param {
    num_output: 144
    bias_term: false
    kernel_size: 1
    weight_filler {
      type: "msra"
    }
  }
}
layer {
  name: "conv3_2/expand/bn"
  type: "BatchNorm"
  bottom: "conv3_2/expand"
  top: "conv3_2/expand/bn"
  param {
    lr_mult: 0
    decay_mult: 0
  }
  param {
    lr_mult: 0
    decay_mult: 0
  }
  param {
    lr_mult: 0
    decay_mult: 0
  }
  batch_norm_param {
    use_global_stats: true
    eps: 1e-5
  }
}
layer {
  name: "conv3_2/expand/scale"
  type: "Scale"
  bottom: "conv3_2/expand/bn"
  top: "conv3_2/expand/bn"
  param {
    lr_mult: 1
    decay_mult: 0
  }
  param {
    lr_mult: 1
    decay_mult: 0
  }
  scale_param {
    bias_term: true
  }
}
layer {
  name: "relu3_2/expand"
  type: "ReLU"
  bottom: "conv3_2/expand/bn"
  top: "conv3_2/expand/bn"
}
layer {
  name: "conv3_2/dwise"
  type: "DepthwiseConvolution"
  bottom: "conv3_2/expand/bn"
  top: "conv3_2/dwise"
  param {
    lr_mult: 1
    decay_mult: 1
  }
  convolution_param {
    num_output: 144
    bias_term: false
    pad: 1
    kernel_size: 3
    group: 144
    stride: 2
    weight_filler {
      type: "msra"
    }
    engine: CAFFE
  }
}
layer {
  name: "conv3_2/dwise/bn"
  type: "BatchNorm"
  bottom: "conv3_2/dwise"
  top: "conv3_2/dwise/bn"
  param {
    lr_mult: 0
    decay_mult: 0
  }
  param {
    lr_mult: 0
    decay_mult: 0
  }
  param {
    lr_mult: 0
    decay_mult: 0
  }
  batch_norm_param {
    use_global_stats: true
    eps: 1e-5
  }
}
layer {
  name: "conv3_2/dwise/scale"
  type: "Scale"
  bottom: "conv3_2/dwise/bn"
  top: "conv3_2/dwise/bn"
  param {
    lr_mult: 1
    decay_mult: 0
  }
  param {
    lr_mult: 1
    decay_mult: 0
  }
  scale_param {
    bias_term: true
  }
}
layer {
  name: "relu3_2/dwise"
  type: "ReLU"
  bottom: "conv3_2/dwise/bn"
  top: "conv3_2/dwise/bn"
}
layer {
  name: "conv3_2/linear"
  type: "Convolution"
  bottom: "conv3_2/dwise/bn"
  top: "conv3_2/linear"
  param {
    lr_mult: 1
    decay_mult: 1
  }
  convolution_param {
    num_output: 32
    bias_term: false
    kernel_size: 1
    weight_filler {
      type: "msra"
    }
  }
}
layer {
  name: "conv3_2/linear/bn"
  type: "BatchNorm"
  bottom: "conv3_2/linear"
  top: "conv3_2/linear/bn"
  param {
    lr_mult: 0
    decay_mult: 0
  }
  param {
    lr_mult: 0
    decay_mult: 0
  }
  param {
    lr_mult: 0
    decay_mult: 0
  }
  batch_norm_param {
    use_global_stats: true
    eps: 1e-5
  }
}
layer {
  name: "conv3_2/linear/scale"
  type: "Scale"
  bottom: "conv3_2/linear/bn"
  top: "conv3_2/linear/bn"
  param {
    lr_mult: 1
    decay_mult: 0
  }
  param {
    lr_mult: 1
    decay_mult: 0
  }
  scale_param {
    bias_term: true
  }
}
layer {
  name: "conv4_1/expand"
  type: "Convolution"
  bottom: "conv3_2/linear/bn"
  top: "conv4_1/expand"
  param {
    lr_mult: 1
    decay_mult: 1
  }
  convolution_param {
    num_output: 192
    bias_term: false
    kernel_size: 1
    weight_filler {
      type: "msra"
    }
  }
}
layer {
  name: "conv4_1/expand/bn"
  type: "BatchNorm"
  bottom: "conv4_1/expand"
  top: "conv4_1/expand/bn"
  param {
    lr_mult: 0
    decay_mult: 0
  }
  param {
    lr_mult: 0
    decay_mult: 0
  }
  param {
    lr_mult: 0
    decay_mult: 0
  }
  batch_norm_param {
    use_global_stats: true
    eps: 1e-5
  }
}
layer {
  name: "conv4_1/expand/scale"
  type: "Scale"
  bottom: "conv4_1/expand/bn"
  top: "conv4_1/expand/bn"
  param {
    lr_mult: 1
    decay_mult: 0
  }
  param {
    lr_mult: 1
    decay_mult: 0
  }
  scale_param {
    bias_term: true
  }
}
layer {
  name: "relu4_1/expand"
  type: "ReLU"
  bottom: "conv4_1/expand/bn"
  top: "conv4_1/expand/bn"
}
layer {
  name: "conv4_1/dwise"
  type: "DepthwiseConvolution"
  bottom: "conv4_1/expand/bn"
  top: "conv4_1/dwise"
  param {
    lr_mult: 1
    decay_mult: 1
  }
  convolution_param {
    num_output: 192
    bias_term: false
    pad: 1
    kernel_size: 3
    group: 192
    weight_filler {
      type: "msra"
    }
    engine: CAFFE
  }
}
layer {
  name: "conv4_1/dwise/bn"
  type: "BatchNorm"
  bottom: "conv4_1/dwise"
  top: "conv4_1/dwise/bn"
  param {
    lr_mult: 0
    decay_mult: 0
  }
  param {
    lr_mult: 0
    decay_mult: 0
  }
  param {
    lr_mult: 0
    decay_mult: 0
  }
  batch_norm_param {
    use_global_stats: true
    eps: 1e-5
  }
}
layer {
  name: "conv4_1/dwise/scale"
  type: "Scale"
  bottom: "conv4_1/dwise/bn"
  top: "conv4_1/dwise/bn"
  param {
    lr_mult: 1
    decay_mult: 0
  }
  param {
    lr_mult: 1
    decay_mult: 0
  }
  scale_param {
    bias_term: true
  }
}
layer {
  name: "relu4_1/dwise"
  type: "ReLU"
  bottom: "conv4_1/dwise/bn"
  top: "conv4_1/dwise/bn"
}
layer {
  name: "conv4_1/linear"
  type: "Convolution"
  bottom: "conv4_1/dwise/bn"
  top: "conv4_1/linear"
  param {
    lr_mult: 1
    decay_mult: 1
  }
  convolution_param {
    num_output: 32
    bias_term: false
    kernel_size: 1
    weight_filler {
      type: "msra"
    }
  }
}
layer {
  name: "conv4_1/linear/bn"
  type: "BatchNorm"
  bottom: "conv4_1/linear"
  top: "conv4_1/linear/bn"
  param {
    lr_mult: 0
    decay_mult: 0
  }
  param {
    lr_mult: 0
    decay_mult: 0
  }
  param {
    lr_mult: 0
    decay_mult: 0
  }
  batch_norm_param {
    use_global_stats: true
    eps: 1e-5
  }
}
layer {
  name: "conv4_1/linear/scale"
  type: "Scale"
  bottom: "conv4_1/linear/bn"
  top: "conv4_1/linear/bn"
  param {
    lr_mult: 1
    decay_mult: 0
  }
  param {
    lr_mult: 1
    decay_mult: 0
  }
  scale_param {
    bias_term: true
  }
}
layer {
  name: "block_4_1"
  type: "Eltwise"
  bottom: "conv3_2/linear/bn"
  bottom: "conv4_1/linear/bn"
  top: "block_4_1"
}
layer {
  name: "conv4_2/expand"
  type: "Convolution"
  bottom: "block_4_1"
  top: "conv4_2/expand"
  param {
    lr_mult: 1
    decay_mult: 1
  }
  convolution_param {
    num_output: 192
    bias_term: false
    kernel_size: 1
    weight_filler {
      type: "msra"
    }
  }
}
layer {
  name: "conv4_2/expand/bn"
  type: "BatchNorm"
  bottom: "conv4_2/expand"
  top: "conv4_2/expand/bn"
  param {
    lr_mult: 0
    decay_mult: 0
  }
  param {
    lr_mult: 0
    decay_mult: 0
  }
  param {
    lr_mult: 0
    decay_mult: 0
  }
  batch_norm_param {
    use_global_stats: true
    eps: 1e-5
  }
}
layer {
  name: "conv4_2/expand/scale"
  type: "Scale"
  bottom: "conv4_2/expand/bn"
  top: "conv4_2/expand/bn"
  param {
    lr_mult: 1
    decay_mult: 0
  }
  param {
    lr_mult: 1
    decay_mult: 0
  }
  scale_param {
    bias_term: true
  }
}
layer {
  name: "relu4_2/expand"
  type: "ReLU"
  bottom: "conv4_2/expand/bn"
  top: "conv4_2/expand/bn"
}
layer {
  name: "conv4_2/dwise"
  type: "DepthwiseConvolution"
  bottom: "conv4_2/expand/bn"
  top: "conv4_2/dwise"
  param {
    lr_mult: 1
    decay_mult: 1
  }
  convolution_param {
    num_output: 192
    bias_term: false
    pad: 1
    kernel_size: 3
    group: 192
    weight_filler {
      type: "msra"
    }
    engine: CAFFE
  }
}
layer {
  name: "conv4_2/dwise/bn"
  type: "BatchNorm"
  bottom: "conv4_2/dwise"
  top: "conv4_2/dwise/bn"
  param {
    lr_mult: 0
    decay_mult: 0
  }
  param {
    lr_mult: 0
    decay_mult: 0
  }
  param {
    lr_mult: 0
    decay_mult: 0
  }
  batch_norm_param {
    use_global_stats: true
    eps: 1e-5
  }
}
layer {
  name: "conv4_2/dwise/scale"
  type: "Scale"
  bottom: "conv4_2/dwise/bn"
  top: "conv4_2/dwise/bn"
  param {
    lr_mult: 1
    decay_mult: 0
  }
  param {
    lr_mult: 1
    decay_mult: 0
  }
  scale_param {
    bias_term: true
  }
}
layer {
  name: "relu4_2/dwise"
  type: "ReLU"
  bottom: "conv4_2/dwise/bn"
  top: "conv4_2/dwise/bn"
}
layer {
  name: "conv4_2/linear"
  type: "Convolution"
  bottom: "conv4_2/dwise/bn"
  top: "conv4_2/linear"
  param {
    lr_mult: 1
    decay_mult: 1
  }
  convolution_param {
    num_output: 32
    bias_term: false
    kernel_size: 1
    weight_filler {
      type: "msra"
    }
  }
}
layer {
  name: "conv4_2/linear/bn"
  type: "BatchNorm"
  bottom: "conv4_2/linear"
  top: "conv4_2/linear/bn"
  param {
    lr_mult: 0
    decay_mult: 0
  }
  param {
    lr_mult: 0
    decay_mult: 0
  }
  param {
    lr_mult: 0
    decay_mult: 0
  }
  batch_norm_param {
    use_global_stats: true
    eps: 1e-5
  }
}
layer {
  name: "conv4_2/linear/scale"
  type: "Scale"
  bottom: "conv4_2/linear/bn"
  top: "conv4_2/linear/bn"
  param {
    lr_mult: 1
    decay_mult: 0
  }
  param {
    lr_mult: 1
    decay_mult: 0
  }
  scale_param {
    bias_term: true
  }
}
layer {
  name: "block_4_2"
  type: "Eltwise"
  bottom: "block_4_1"
  bottom: "conv4_2/linear/bn"
  top: "block_4_2"
}
layer {
  name: "conv4_3/expand"
  type: "Convolution"
  bottom: "block_4_2"
  top: "conv4_3/expand"
  param {
    lr_mult: 1
    decay_mult: 1
  }
  convolution_param {
    num_output: 192
    bias_term: false
    kernel_size: 1
    weight_filler {
      type: "msra"
    }
  }
}
layer {
  name: "conv4_3/expand/bn"
  type: "BatchNorm"
  bottom: "conv4_3/expand"
  top: "conv4_3/expand/bn"
  param {
    lr_mult: 0
    decay_mult: 0
  }
  param {
    lr_mult: 0
    decay_mult: 0
  }
  param {
    lr_mult: 0
    decay_mult: 0
  }
  batch_norm_param {
    use_global_stats: true
    eps: 1e-5
  }
}
layer {
  name: "conv4_3/expand/scale"
  type: "Scale"
  bottom: "conv4_3/expand/bn"
  top: "conv4_3/expand/bn"
  param {
    lr_mult: 1
    decay_mult: 0
  }
  param {
    lr_mult: 1
    decay_mult: 0
  }
  scale_param {
    bias_term: true
  }
}
layer {
  name: "relu4_3/expand"
  type: "ReLU"
  bottom: "conv4_3/expand/bn"
  top: "conv4_3/expand/bn"
}
layer {
  name: "conv4_3/dwise"
  type: "DepthwiseConvolution"
  bottom: "conv4_3/expand/bn"
  top: "conv4_3/dwise"
  param {
    lr_mult: 1
    decay_mult: 1
  }
  convolution_param {
    num_output: 192
    bias_term: false
    pad: 1
    kernel_size: 3
    group: 192
    weight_filler {
      type: "msra"
    }
    engine: CAFFE
  }
}
layer {
  name: "conv4_3/dwise/bn"
  type: "BatchNorm"
  bottom: "conv4_3/dwise"
  top: "conv4_3/dwise/bn"
  param {
    lr_mult: 0
    decay_mult: 0
  }
  param {
    lr_mult: 0
    decay_mult: 0
  }
  param {
    lr_mult: 0
    decay_mult: 0
  }
  batch_norm_param {
    use_global_stats: true
    eps: 1e-5
  }
}
layer {
  name: "conv4_3/dwise/scale"
  type: "Scale"
  bottom: "conv4_3/dwise/bn"
  top: "conv4_3/dwise/bn"
  param {
    lr_mult: 1
    decay_mult: 0
  }
  param {
    lr_mult: 1
    decay_mult: 0
  }
  scale_param {
    bias_term: true
  }
}
layer {
  name: "relu4_3/dwise"
  type: "ReLU"
  bottom: "conv4_3/dwise/bn"
  top: "conv4_3/dwise/bn"
}
layer {
  name: "conv4_3/linear"
  type: "Convolution"
  bottom: "conv4_3/dwise/bn"
  top: "conv4_3/linear"
  param {
    lr_mult: 1
    decay_mult: 1
  }
  convolution_param {
    num_output: 64
    bias_term: false
    kernel_size: 1
    weight_filler {
      type: "msra"
    }
  }
}
layer {
  name: "conv4_3/linear/bn"
  type: "BatchNorm"
  bottom: "conv4_3/linear"
  top: "conv4_3/linear/bn"
  param {
    lr_mult: 0
    decay_mult: 0
  }
  param {
    lr_mult: 0
    decay_mult: 0
  }
  param {
    lr_mult: 0
    decay_mult: 0
  }
  batch_norm_param {
    use_global_stats: true
    eps: 1e-5
  }
}
layer {
  name: "conv4_3/linear/scale"
  type: "Scale"
  bottom: "conv4_3/linear/bn"
  top: "conv4_3/linear/bn"
  param {
    lr_mult: 1
    decay_mult: 0
  }
  param {
    lr_mult: 1
    decay_mult: 0
  }
  scale_param {
    bias_term: true
  }
}
layer {
  name: "conv4_4/expand"
  type: "Convolution"
  bottom: "conv4_3/linear/bn"
  top: "conv4_4/expand"
  param {
    lr_mult: 1
    decay_mult: 1
  }
  convolution_param {
    num_output: 384
    bias_term: false
    kernel_size: 1
    weight_filler {
      type: "msra"
    }
  }
}
layer {
  name: "conv4_4/expand/bn"
  type: "BatchNorm"
  bottom: "conv4_4/expand"
  top: "conv4_4/expand/bn"
  param {
    lr_mult: 0
    decay_mult: 0
  }
  param {
    lr_mult: 0
    decay_mult: 0
  }
  param {
    lr_mult: 0
    decay_mult: 0
  }
  batch_norm_param {
    use_global_stats: true
    eps: 1e-5
  }
}
layer {
  name: "conv4_4/expand/scale"
  type: "Scale"
  bottom: "conv4_4/expand/bn"
  top: "conv4_4/expand/bn"
  param {
    lr_mult: 1
    decay_mult: 0
  }
  param {
    lr_mult: 1
    decay_mult: 0
  }
  scale_param {
    bias_term: true
  }
}
layer {
  name: "relu4_4/expand"
  type: "ReLU"
  bottom: "conv4_4/expand/bn"
  top: "conv4_4/expand/bn"
}
layer {
  name: "conv4_4/dwise"
  type: "DepthwiseConvolution"
  bottom: "conv4_4/expand/bn"
  top: "conv4_4/dwise"
  param {
    lr_mult: 1
    decay_mult: 1
  }
  convolution_param {
    num_output: 384
    bias_term: false
    pad: 1
    kernel_size: 3
    group: 384
    weight_filler {
      type: "msra"
    }
    engine: CAFFE
  }
}
layer {
  name: "conv4_4/dwise/bn"
  type: "BatchNorm"
  bottom: "conv4_4/dwise"
  top: "conv4_4/dwise/bn"
  param {
    lr_mult: 0
    decay_mult: 0
  }
  param {
    lr_mult: 0
    decay_mult: 0
  }
  param {
    lr_mult: 0
    decay_mult: 0
  }
  batch_norm_param {
    use_global_stats: true
    eps: 1e-5
  }
}
layer {
  name: "conv4_4/dwise/scale"
  type: "Scale"
  bottom: "conv4_4/dwise/bn"
  top: "conv4_4/dwise/bn"
  param {
    lr_mult: 1
    decay_mult: 0
  }
  param {
    lr_mult: 1
    decay_mult: 0
  }
  scale_param {
    bias_term: true
  }
}
layer {
  name: "relu4_4/dwise"
  type: "ReLU"
  bottom: "conv4_4/dwise/bn"
  top: "conv4_4/dwise/bn"
}
layer {
  name: "conv4_4/linear"
  type: "Convolution"
  bottom: "conv4_4/dwise/bn"
  top: "conv4_4/linear"
  param {
    lr_mult: 1
    decay_mult: 1
  }
  convolution_param {
    num_output: 64
    bias_term: false
    kernel_size: 1
    weight_filler {
      type: "msra"
    }
  }
}
layer {
  name: "conv4_4/linear/bn"
  type: "BatchNorm"
  bottom: "conv4_4/linear"
  top: "conv4_4/linear/bn"
  param {
    lr_mult: 0
    decay_mult: 0
  }
  param {
    lr_mult: 0
    decay_mult: 0
  }
  param {
    lr_mult: 0
    decay_mult: 0
  }
  batch_norm_param {
    use_global_stats: true
    eps: 1e-5
  }
}
layer {
  name: "conv4_4/linear/scale"
  type: "Scale"
  bottom: "conv4_4/linear/bn"
  top: "conv4_4/linear/bn"
  param {
    lr_mult: 1
    decay_mult: 0
  }
  param {
    lr_mult: 1
    decay_mult: 0
  }
  scale_param {
    bias_term: true
  }
}
layer {
  name: "block_4_4"
  type: "Eltwise"
  bottom: "conv4_3/linear/bn"
  bottom: "conv4_4/linear/bn"
  top: "block_4_4"
}
layer {
  name: "conv4_5/expand"
  type: "Convolution"
  bottom: "block_4_4"
  top: "conv4_5/expand"
  param {
    lr_mult: 1
    decay_mult: 1
  }
  convolution_param {
    num_output: 384
    bias_term: false
    kernel_size: 1
    weight_filler {
      type: "msra"
    }
  }
}
layer {
  name: "conv4_5/expand/bn"
  type: "BatchNorm"
  bottom: "conv4_5/expand"
  top: "conv4_5/expand/bn"
  param {
    lr_mult: 0
    decay_mult: 0
  }
  param {
    lr_mult: 0
    decay_mult: 0
  }
  param {
    lr_mult: 0
    decay_mult: 0
  }
  batch_norm_param {
    use_global_stats: true
    eps: 1e-5
  }
}
layer {
  name: "conv4_5/expand/scale"
  type: "Scale"
  bottom: "conv4_5/expand/bn"
  top: "conv4_5/expand/bn"
  param {
    lr_mult: 1
    decay_mult: 0
  }
  param {
    lr_mult: 1
    decay_mult: 0
  }
  scale_param {
    bias_term: true
  }
}
layer {
  name: "relu4_5/expand"
  type: "ReLU"
  bottom: "conv4_5/expand/bn"
  top: "conv4_5/expand/bn"
}
layer {
  name: "conv4_5/dwise"
  type: "DepthwiseConvolution"
  bottom: "conv4_5/expand/bn"
  top: "conv4_5/dwise"
  param {
    lr_mult: 1
    decay_mult: 1
  }
  convolution_param {
    num_output: 384
    bias_term: false
    pad: 1
    kernel_size: 3
    group: 384
    weight_filler {
      type: "msra"
    }
    engine: CAFFE
  }
}
layer {
  name: "conv4_5/dwise/bn"
  type: "BatchNorm"
  bottom: "conv4_5/dwise"
  top: "conv4_5/dwise/bn"
  param {
    lr_mult: 0
    decay_mult: 0
  }
  param {
    lr_mult: 0
    decay_mult: 0
  }
  param {
    lr_mult: 0
    decay_mult: 0
  }
  batch_norm_param {
    use_global_stats: true
    eps: 1e-5
  }
}
layer {
  name: "conv4_5/dwise/scale"
  type: "Scale"
  bottom: "conv4_5/dwise/bn"
  top: "conv4_5/dwise/bn"
  param {
    lr_mult: 1
    decay_mult: 0
  }
  param {
    lr_mult: 1
    decay_mult: 0
  }
  scale_param {
    bias_term: true
  }
}
layer {
  name: "relu4_5/dwise"
  type: "ReLU"
  bottom: "conv4_5/dwise/bn"
  top: "conv4_5/dwise/bn"
}
layer {
  name: "conv4_5/linear"
  type: "Convolution"
  bottom: "conv4_5/dwise/bn"
  top: "conv4_5/linear"
  param {
    lr_mult: 1
    decay_mult: 1
  }
  convolution_param {
    num_output: 64
    bias_term: false
    kernel_size: 1
    weight_filler {
      type: "msra"
    }
  }
}
layer {
  name: "conv4_5/linear/bn"
  type: "BatchNorm"
  bottom: "conv4_5/linear"
  top: "conv4_5/linear/bn"
  param {
    lr_mult: 0
    decay_mult: 0
  }
  param {
    lr_mult: 0
    decay_mult: 0
  }
  param {
    lr_mult: 0
    decay_mult: 0
  }
  batch_norm_param {
    use_global_stats: true
    eps: 1e-5
  }
}
layer {
  name: "conv4_5/linear/scale"
  type: "Scale"
  bottom: "conv4_5/linear/bn"
  top: "conv4_5/linear/bn"
  param {
    lr_mult: 1
    decay_mult: 0
  }
  param {
    lr_mult: 1
    decay_mult: 0
  }
  scale_param {
    bias_term: true
  }
}
layer {
  name: "block_4_5"
  type: "Eltwise"
  bottom: "block_4_4"
  bottom: "conv4_5/linear/bn"
  top: "block_4_5"
}
layer {
  name: "conv4_6/expand"
  type: "Convolution"
  bottom: "block_4_5"
  top: "conv4_6/expand"
  param {
    lr_mult: 1
    decay_mult: 1
  }
  convolution_param {
    num_output: 384
    bias_term: false
    kernel_size: 1
    weight_filler {
      type: "msra"
    }
  }
}
layer {
  name: "conv4_6/expand/bn"
  type: "BatchNorm"
  bottom: "conv4_6/expand"
  top: "conv4_6/expand/bn"
  param {
    lr_mult: 0
    decay_mult: 0
  }
  param {
    lr_mult: 0
    decay_mult: 0
  }
  param {
    lr_mult: 0
    decay_mult: 0
  }
  batch_norm_param {
    use_global_stats: true
    eps: 1e-5
  }
}
layer {
  name: "conv4_6/expand/scale"
  type: "Scale"
  bottom: "conv4_6/expand/bn"
  top: "conv4_6/expand/bn"
  param {
    lr_mult: 1
    decay_mult: 0
  }
  param {
    lr_mult: 1
    decay_mult: 0
  }
  scale_param {
    bias_term: true
  }
}
layer {
  name: "relu4_6/expand"
  type: "ReLU"
  bottom: "conv4_6/expand/bn"
  top: "conv4_6/expand/bn"
}
layer {
  name: "conv4_6/dwise"
  type: "DepthwiseConvolution"
  bottom: "conv4_6/expand/bn"
  top: "conv4_6/dwise"
  param {
    lr_mult: 1
    decay_mult: 1
  }
  convolution_param {
    num_output: 384
    bias_term: false
    pad: 1
    kernel_size: 3
    group: 384
    weight_filler {
      type: "msra"
    }
    engine: CAFFE
  }
}
layer {
  name: "conv4_6/dwise/bn"
  type: "BatchNorm"
  bottom: "conv4_6/dwise"
  top: "conv4_6/dwise/bn"
  param {
    lr_mult: 0
    decay_mult: 0
  }
  param {
    lr_mult: 0
    decay_mult: 0
  }
  param {
    lr_mult: 0
    decay_mult: 0
  }
  batch_norm_param {
    use_global_stats: true
    eps: 1e-5
  }
}
layer {
  name: "conv4_6/dwise/scale"
  type: "Scale"
  bottom: "conv4_6/dwise/bn"
  top: "conv4_6/dwise/bn"
  param {
    lr_mult: 1
    decay_mult: 0
  }
  param {
    lr_mult: 1
    decay_mult: 0
  }
  scale_param {
    bias_term: true
  }
}
layer {
  name: "relu4_6/dwise"
  type: "ReLU"
  bottom: "conv4_6/dwise/bn"
  top: "conv4_6/dwise/bn"
}
layer {
  name: "conv4_6/linear"
  type: "Convolution"
  bottom: "conv4_6/dwise/bn"
  top: "conv4_6/linear"
  param {
    lr_mult: 1
    decay_mult: 1
  }
  convolution_param {
    num_output: 64
    bias_term: false
    kernel_size: 1
    weight_filler {
      type: "msra"
    }
  }
}
layer {
  name: "conv4_6/linear/bn"
  type: "BatchNorm"
  bottom: "conv4_6/linear"
  top: "conv4_6/linear/bn"
  param {
    lr_mult: 0
    decay_mult: 0
  }
  param {
    lr_mult: 0
    decay_mult: 0
  }
  param {
    lr_mult: 0
    decay_mult: 0
  }
  batch_norm_param {
    use_global_stats: true
    eps: 1e-5
  }
}
layer {
  name: "conv4_6/linear/scale"
  type: "Scale"
  bottom: "conv4_6/linear/bn"
  top: "conv4_6/linear/bn"
  param {
    lr_mult: 1
    decay_mult: 0
  }
  param {
    lr_mult: 1
    decay_mult: 0
  }
  scale_param {
    bias_term: true
  }
}
layer {
  name: "block_4_6"
  type: "Eltwise"
  bottom: "block_4_5"
  bottom: "conv4_6/linear/bn"
  top: "block_4_6"
}
layer {
  name: "conv4_7/expand"
  type: "Convolution"
  bottom: "block_4_6"
  top: "conv4_7/expand"
  param {
    lr_mult: 1
    decay_mult: 1
  }
  convolution_param {
    num_output: 384
    bias_term: false
    kernel_size: 1
    weight_filler {
      type: "msra"
    }
  }
}
layer {
  name: "conv4_7/expand/bn"
  type: "BatchNorm"
  bottom: "conv4_7/expand"
  top: "conv4_7/expand/bn"
  param {
    lr_mult: 0
    decay_mult: 0
  }
  param {
    lr_mult: 0
    decay_mult: 0
  }
  param {
    lr_mult: 0
    decay_mult: 0
  }
  batch_norm_param {
    use_global_stats: true
    eps: 1e-5
  }
}
layer {
  name: "conv4_7/expand/scale"
  type: "Scale"
  bottom: "conv4_7/expand/bn"
  top: "conv4_7/expand/bn"
  param {
    lr_mult: 1
    decay_mult: 0
  }
  param {
    lr_mult: 1
    decay_mult: 0
  }
  scale_param {
    bias_term: true
  }
}
layer {
  name: "relu4_7/expand"
  type: "ReLU"
  bottom: "conv4_7/expand/bn"
  top: "conv4_7/expand/bn"
}
layer {
  name: "conv4_7/dwise"
  type: "DepthwiseConvolution"
  bottom: "conv4_7/expand/bn"
  top: "conv4_7/dwise"
  param {
    lr_mult: 1
    decay_mult: 1
  }
  convolution_param {
    num_output: 384
    bias_term: false
    pad: 1
    kernel_size: 3
    group: 384
    stride: 2
    weight_filler {
      type: "msra"
    }
    engine: CAFFE
  }
}
layer {
  name: "conv4_7/dwise/bn"
  type: "BatchNorm"
  bottom: "conv4_7/dwise"
  top: "conv4_7/dwise/bn"
  param {
    lr_mult: 0
    decay_mult: 0
  }
  param {
    lr_mult: 0
    decay_mult: 0
  }
  param {
    lr_mult: 0
    decay_mult: 0
  }
  batch_norm_param {
    use_global_stats: true
    eps: 1e-5
  }
}
layer {
  name: "conv4_7/dwise/scale"
  type: "Scale"
  bottom: "conv4_7/dwise/bn"
  top: "conv4_7/dwise/bn"
  param {
    lr_mult: 1
    decay_mult: 0
  }
  param {
    lr_mult: 1
    decay_mult: 0
  }
  scale_param {
    bias_term: true
  }
}
layer {
  name: "relu4_7/dwise"
  type: "ReLU"
  bottom: "conv4_7/dwise/bn"
  top: "conv4_7/dwise/bn"
}
layer {
  name: "conv4_7/linear"
  type: "Convolution"
  bottom: "conv4_7/dwise/bn"
  top: "conv4_7/linear"
  param {
    lr_mult: 1
    decay_mult: 1
  }
  convolution_param {
    num_output: 96
    bias_term: false
    kernel_size: 1
    weight_filler {
      type: "msra"
    }
  }
}
layer {
  name: "conv4_7/linear/bn"
  type: "BatchNorm"
  bottom: "conv4_7/linear"
  top: "conv4_7/linear/bn"
  param {
    lr_mult: 0
    decay_mult: 0
  }
  param {
    lr_mult: 0
    decay_mult: 0
  }
  param {
    lr_mult: 0
    decay_mult: 0
  }
  batch_norm_param {
    use_global_stats: true
    eps: 1e-5
  }
}
layer {
  name: "conv4_7/linear/scale"
  type: "Scale"
  bottom: "conv4_7/linear/bn"
  top: "conv4_7/linear/bn"
  param {
    lr_mult: 1
    decay_mult: 0
  }
  param {
    lr_mult: 1
    decay_mult: 0
  }
  scale_param {
    bias_term: true
  }
}
layer {
  name: "conv5_1/expand"
  type: "Convolution"
  bottom: "conv4_7/linear/bn"
  top: "conv5_1/expand"
  param {
    lr_mult: 1
    decay_mult: 1
  }
  convolution_param {
    num_output: 576
    bias_term: false
    kernel_size: 1
    weight_filler {
      type: "msra"
    }
  }
}
layer {
  name: "conv5_1/expand/bn"
  type: "BatchNorm"
  bottom: "conv5_1/expand"
  top: "conv5_1/expand/bn"
  param {
    lr_mult: 0
    decay_mult: 0
  }
  param {
    lr_mult: 0
    decay_mult: 0
  }
  param {
    lr_mult: 0
    decay_mult: 0
  }
  batch_norm_param {
    use_global_stats: true
    eps: 1e-5
  }
}
layer {
  name: "conv5_1/expand/scale"
  type: "Scale"
  bottom: "conv5_1/expand/bn"
  top: "conv5_1/expand/bn"
  param {
    lr_mult: 1
    decay_mult: 0
  }
  param {
    lr_mult: 1
    decay_mult: 0
  }
  scale_param {
    bias_term: true
  }
}
layer {
  name: "relu5_1/expand"
  type: "ReLU"
  bottom: "conv5_1/expand/bn"
  top: "conv5_1/expand/bn"
}
layer {
  name: "conv5_1/dwise"
  type: "DepthwiseConvolution"
  bottom: "conv5_1/expand/bn"
  top: "conv5_1/dwise"
  param {
    lr_mult: 1
    decay_mult: 1
  }
  convolution_param {
    num_output: 576
    bias_term: false
    pad: 1
    kernel_size: 3
    group: 576
    weight_filler {
      type: "msra"
    }
    engine: CAFFE
  }
}
layer {
  name: "conv5_1/dwise/bn"
  type: "BatchNorm"
  bottom: "conv5_1/dwise"
  top: "conv5_1/dwise/bn"
  param {
    lr_mult: 0
    decay_mult: 0
  }
  param {
    lr_mult: 0
    decay_mult: 0
  }
  param {
    lr_mult: 0
    decay_mult: 0
  }
  batch_norm_param {
    use_global_stats: true
    eps: 1e-5
  }
}
layer {
  name: "conv5_1/dwise/scale"
  type: "Scale"
  bottom: "conv5_1/dwise/bn"
  top: "conv5_1/dwise/bn"
  param {
    lr_mult: 1
    decay_mult: 0
  }
  param {
    lr_mult: 1
    decay_mult: 0
  }
  scale_param {
    bias_term: true
  }
}
layer {
  name: "relu5_1/dwise"
  type: "ReLU"
  bottom: "conv5_1/dwise/bn"
  top: "conv5_1/dwise/bn"
}
layer {
  name: "conv5_1/linear"
  type: "Convolution"
  bottom: "conv5_1/dwise/bn"
  top: "conv5_1/linear"
  param {
    lr_mult: 1
    decay_mult: 1
  }
  convolution_param {
    num_output: 96
    bias_term: false
    kernel_size: 1
    weight_filler {
      type: "msra"
    }
  }
}
layer {
  name: "conv5_1/linear/bn"
  type: "BatchNorm"
  bottom: "conv5_1/linear"
  top: "conv5_1/linear/bn"
  param {
    lr_mult: 0
    decay_mult: 0
  }
  param {
    lr_mult: 0
    decay_mult: 0
  }
  param {
    lr_mult: 0
    decay_mult: 0
  }
  batch_norm_param {
    use_global_stats: true
    eps: 1e-5
  }
}
layer {
  name: "conv5_1/linear/scale"
  type: "Scale"
  bottom: "conv5_1/linear/bn"
  top: "conv5_1/linear/bn"
  param {
    lr_mult: 1
    decay_mult: 0
  }
  param {
    lr_mult: 1
    decay_mult: 0
  }
  scale_param {
    bias_term: true
  }
}
layer {
  name: "block_5_1"
  type: "Eltwise"
  bottom: "conv4_7/linear/bn"
  bottom: "conv5_1/linear/bn"
  top: "block_5_1"
}
layer {
  name: "conv5_2/expand"
  type: "Convolution"
  bottom: "block_5_1"
  top: "conv5_2/expand"
  param {
    lr_mult: 1
    decay_mult: 1
  }
  convolution_param {
    num_output: 576
    bias_term: false
    kernel_size: 1
    weight_filler {
      type: "msra"
    }
  }
}
layer {
  name: "conv5_2/expand/bn"
  type: "BatchNorm"
  bottom: "conv5_2/expand"
  top: "conv5_2/expand/bn"
  param {
    lr_mult: 0
    decay_mult: 0
  }
  param {
    lr_mult: 0
    decay_mult: 0
  }
  param {
    lr_mult: 0
    decay_mult: 0
  }
  batch_norm_param {
    use_global_stats: true
    eps: 1e-5
  }
}
layer {
  name: "conv5_2/expand/scale"
  type: "Scale"
  bottom: "conv5_2/expand/bn"
  top: "conv5_2/expand/bn"
  param {
    lr_mult: 1
    decay_mult: 0
  }
  param {
    lr_mult: 1
    decay_mult: 0
  }
  scale_param {
    bias_term: true
  }
}
layer {
  name: "relu5_2/expand"
  type: "ReLU"
  bottom: "conv5_2/expand/bn"
  top: "conv5_2/expand/bn"
}
layer {
  name: "conv5_2/dwise"
  type: "DepthwiseConvolution"
  bottom: "conv5_2/expand/bn"
  top: "conv5_2/dwise"
  param {
    lr_mult: 1
    decay_mult: 1
  }
  convolution_param {
    num_output: 576
    bias_term: false
    pad: 1
    kernel_size: 3
    group: 576
    weight_filler {
      type: "msra"
    }
    engine: CAFFE
  }
}
layer {
  name: "conv5_2/dwise/bn"
  type: "BatchNorm"
  bottom: "conv5_2/dwise"
  top: "conv5_2/dwise/bn"
  param {
    lr_mult: 0
    decay_mult: 0
  }
  param {
    lr_mult: 0
    decay_mult: 0
  }
  param {
    lr_mult: 0
    decay_mult: 0
  }
  batch_norm_param {
    use_global_stats: true
    eps: 1e-5
  }
}
layer {
  name: "conv5_2/dwise/scale"
  type: "Scale"
  bottom: "conv5_2/dwise/bn"
  top: "conv5_2/dwise/bn"
  param {
    lr_mult: 1
    decay_mult: 0
  }
  param {
    lr_mult: 1
    decay_mult: 0
  }
  scale_param {
    bias_term: true
  }
}
layer {
  name: "relu5_2/dwise"
  type: "ReLU"
  bottom: "conv5_2/dwise/bn"
  top: "conv5_2/dwise/bn"
}
layer {
  name: "conv5_2/linear"
  type: "Convolution"
  bottom: "conv5_2/dwise/bn"
  top: "conv5_2/linear"
  param {
    lr_mult: 1
    decay_mult: 1
  }
  convolution_param {
    num_output: 96
    bias_term: false
    kernel_size: 1
    weight_filler {
      type: "msra"
    }
  }
}
layer {
  name: "conv5_2/linear/bn"
  type: "BatchNorm"
  bottom: "conv5_2/linear"
  top: "conv5_2/linear/bn"
  param {
    lr_mult: 0
    decay_mult: 0
  }
  param {
    lr_mult: 0
    decay_mult: 0
  }
  param {
    lr_mult: 0
    decay_mult: 0
  }
  batch_norm_param {
    use_global_stats: true
    eps: 1e-5
  }
}
layer {
  name: "conv5_2/linear/scale"
  type: "Scale"
  bottom: "conv5_2/linear/bn"
  top: "conv5_2/linear/bn"
  param {
    lr_mult: 1
    decay_mult: 0
  }
  param {
    lr_mult: 1
    decay_mult: 0
  }
  scale_param {
    bias_term: true
  }
}
layer {
  name: "block_5_2"
  type: "Eltwise"
  bottom: "block_5_1"
  bottom: "conv5_2/linear/bn"
  top: "block_5_2"
}
layer {
  name: "conv5_3/expand"
  type: "Convolution"
  bottom: "block_5_2"
  top: "conv5_3/expand"
  param {
    lr_mult: 1
    decay_mult: 1
  }
  convolution_param {
    num_output: 576
    bias_term: false
    kernel_size: 1
    weight_filler {
      type: "msra"
    }
  }
}
layer {
  name: "conv5_3/expand/bn"
  type: "BatchNorm"
  bottom: "conv5_3/expand"
  top: "conv5_3/expand/bn"
  param {
    lr_mult: 0
    decay_mult: 0
  }
  param {
    lr_mult: 0
    decay_mult: 0
  }
  param {
    lr_mult: 0
    decay_mult: 0
  }
  batch_norm_param {
    use_global_stats: true
    eps: 1e-5
  }
}
layer {
  name: "conv5_3/expand/scale"
  type: "Scale"
  bottom: "conv5_3/expand/bn"
  top: "conv5_3/expand/bn"
  param {
    lr_mult: 1
    decay_mult: 0
  }
  param {
    lr_mult: 1
    decay_mult: 0
  }
  scale_param {
    bias_term: true
  }
}
layer {
  name: "relu5_3/expand"
  type: "ReLU"
  bottom: "conv5_3/expand/bn"
  top: "conv5_3/expand/bn"
}
layer {
  name: "conv5_3/dwise"
  type: "DepthwiseConvolution"
  bottom: "conv5_3/expand/bn"
  top: "conv5_3/dwise"
  param {
    lr_mult: 1
    decay_mult: 1
  }
  convolution_param {
    num_output: 576
    bias_term: false
    pad: 1
    kernel_size: 3
    group: 576
    stride: 2
    weight_filler {
      type: "msra"
    }
    engine: CAFFE
  }
}
layer {
  name: "conv5_3/dwise/bn"
  type: "BatchNorm"
  bottom: "conv5_3/dwise"
  top: "conv5_3/dwise/bn"
  param {
    lr_mult: 0
    decay_mult: 0
  }
  param {
    lr_mult: 0
    decay_mult: 0
  }
  param {
    lr_mult: 0
    decay_mult: 0
  }
  batch_norm_param {
    use_global_stats: true
    eps: 1e-5
  }
}
layer {
  name: "conv5_3/dwise/scale"
  type: "Scale"
  bottom: "conv5_3/dwise/bn"
  top: "conv5_3/dwise/bn"
  param {
    lr_mult: 1
    decay_mult: 0
  }
  param {
    lr_mult: 1
    decay_mult: 0
  }
  scale_param {
    bias_term: true
  }
}
layer {
  name: "relu5_3/dwise"
  type: "ReLU"
  bottom: "conv5_3/dwise/bn"
  top: "conv5_3/dwise/bn"
}
layer {
  name: "conv5_3/linear"
  type: "Convolution"
  bottom: "conv5_3/dwise/bn"
  top: "conv5_3/linear"
  param {
    lr_mult: 1
    decay_mult: 1
  }
  convolution_param {
    num_output: 160
    bias_term: false
    kernel_size: 1
    weight_filler {
      type: "msra"
    }
  }
}
layer {
  name: "conv5_3/linear/bn"
  type: "BatchNorm"
  bottom: "conv5_3/linear"
  top: "conv5_3/linear/bn"
  param {
    lr_mult: 0
    decay_mult: 0
  }
  param {
    lr_mult: 0
    decay_mult: 0
  }
  param {
    lr_mult: 0
    decay_mult: 0
  }
  batch_norm_param {
    use_global_stats: true
    eps: 1e-5
  }
}
layer {
  name: "conv5_3/linear/scale"
  type: "Scale"
  bottom: "conv5_3/linear/bn"
  top: "conv5_3/linear/bn"
  param {
    lr_mult: 1
    decay_mult: 0
  }
  param {
    lr_mult: 1
    decay_mult: 0
  }
  scale_param {
    bias_term: true
  }
}
layer {
  name: "conv6_1/expand"
  type: "Convolution"
  bottom: "conv5_3/linear/bn"
  top: "conv6_1/expand"
  param {
    lr_mult: 1
    decay_mult: 1
  }
  convolution_param {
    num_output: 960
    bias_term: false
    kernel_size: 1
    weight_filler {
      type: "msra"
    }
  }
}
layer {
  name: "conv6_1/expand/bn"
  type: "BatchNorm"
  bottom: "conv6_1/expand"
  top: "conv6_1/expand/bn"
  param {
    lr_mult: 0
    decay_mult: 0
  }
  param {
    lr_mult: 0
    decay_mult: 0
  }
  param {
    lr_mult: 0
    decay_mult: 0
  }
  batch_norm_param {
    use_global_stats: true
    eps: 1e-5
  }
}
layer {
  name: "conv6_1/expand/scale"
  type: "Scale"
  bottom: "conv6_1/expand/bn"
  top: "conv6_1/expand/bn"
  param {
    lr_mult: 1
    decay_mult: 0
  }
  param {
    lr_mult: 1
    decay_mult: 0
  }
  scale_param {
    bias_term: true
  }
}
layer {
  name: "relu6_1/expand"
  type: "ReLU"
  bottom: "conv6_1/expand/bn"
  top: "conv6_1/expand/bn"
}
layer {
  name: "conv6_1/dwise"
  type: "DepthwiseConvolution"
  bottom: "conv6_1/expand/bn"
  top: "conv6_1/dwise"
  param {
    lr_mult: 1
    decay_mult: 1
  }
  convolution_param {
    num_output: 960
    bias_term: false
    pad: 1
    kernel_size: 3
    group: 960
    weight_filler {
      type: "msra"
    }
    engine: CAFFE
  }
}
layer {
  name: "conv6_1/dwise/bn"
  type: "BatchNorm"
  bottom: "conv6_1/dwise"
  top: "conv6_1/dwise/bn"
  param {
    lr_mult: 0
    decay_mult: 0
  }
  param {
    lr_mult: 0
    decay_mult: 0
  }
  param {
    lr_mult: 0
    decay_mult: 0
  }
  batch_norm_param {
    use_global_stats: true
    eps: 1e-5
  }
}
layer {
  name: "conv6_1/dwise/scale"
  type: "Scale"
  bottom: "conv6_1/dwise/bn"
  top: "conv6_1/dwise/bn"
  param {
    lr_mult: 1
    decay_mult: 0
  }
  param {
    lr_mult: 1
    decay_mult: 0
  }
  scale_param {
    bias_term: true
  }
}
layer {
  name: "relu6_1/dwise"
  type: "ReLU"
  bottom: "conv6_1/dwise/bn"
  top: "conv6_1/dwise/bn"
}
layer {
  name: "conv6_1/linear"
  type: "Convolution"
  bottom: "conv6_1/dwise/bn"
  top: "conv6_1/linear"
  param {
    lr_mult: 1
    decay_mult: 1
  }
  convolution_param {
    num_output: 160
    bias_term: false
    kernel_size: 1
    weight_filler {
      type: "msra"
    }
  }
}
layer {
  name: "conv6_1/linear/bn"
  type: "BatchNorm"
  bottom: "conv6_1/linear"
  top: "conv6_1/linear/bn"
  param {
    lr_mult: 0
    decay_mult: 0
  }
  param {
    lr_mult: 0
    decay_mult: 0
  }
  param {
    lr_mult: 0
    decay_mult: 0
  }
  batch_norm_param {
    use_global_stats: true
    eps: 1e-5
  }
}
layer {
  name: "conv6_1/linear/scale"
  type: "Scale"
  bottom: "conv6_1/linear/bn"
  top: "conv6_1/linear/bn"
  param {
    lr_mult: 1
    decay_mult: 0
  }
  param {
    lr_mult: 1
    decay_mult: 0
  }
  scale_param {
    bias_term: true
  }
}
layer {
  name: "block_6_1"
  type: "Eltwise"
  bottom: "conv5_3/linear/bn"
  bottom: "conv6_1/linear/bn"
  top: "block_6_1"
}
layer {
  name: "conv6_2/expand"
  type: "Convolution"
  bottom: "block_6_1"
  top: "conv6_2/expand"
  param {
    lr_mult: 1
    decay_mult: 1
  }
  convolution_param {
    num_output: 960
    bias_term: false
    kernel_size: 1
    weight_filler {
      type: "msra"
    }
  }
}
layer {
  name: "conv6_2/expand/bn"
  type: "BatchNorm"
  bottom: "conv6_2/expand"
  top: "conv6_2/expand/bn"
  param {
    lr_mult: 0
    decay_mult: 0
  }
  param {
    lr_mult: 0
    decay_mult: 0
  }
  param {
    lr_mult: 0
    decay_mult: 0
  }
  batch_norm_param {
    use_global_stats: true
    eps: 1e-5
  }
}
layer {
  name: "conv6_2/expand/scale"
  type: "Scale"
  bottom: "conv6_2/expand/bn"
  top: "conv6_2/expand/bn"
  param {
    lr_mult: 1
    decay_mult: 0
  }
  param {
    lr_mult: 1
    decay_mult: 0
  }
  scale_param {
    bias_term: true
  }
}
layer {
  name: "relu6_2/expand"
  type: "ReLU"
  bottom: "conv6_2/expand/bn"
  top: "conv6_2/expand/bn"
}
layer {
  name: "conv6_2/dwise"
  type: "DepthwiseConvolution"
  bottom: "conv6_2/expand/bn"
  top: "conv6_2/dwise"
  param {
    lr_mult: 1
    decay_mult: 1
  }
  convolution_param {
    num_output: 960
    bias_term: false
    pad: 1
    kernel_size: 3
    group: 960
    weight_filler {
      type: "msra"
    }
    engine: CAFFE
  }
}
layer {
  name: "conv6_2/dwise/bn"
  type: "BatchNorm"
  bottom: "conv6_2/dwise"
  top: "conv6_2/dwise/bn"
  param {
    lr_mult: 0
    decay_mult: 0
  }
  param {
    lr_mult: 0
    decay_mult: 0
  }
  param {
    lr_mult: 0
    decay_mult: 0
  }
  batch_norm_param {
    use_global_stats: true
    eps: 1e-5
  }
}
layer {
  name: "conv6_2/dwise/scale"
  type: "Scale"
  bottom: "conv6_2/dwise/bn"
  top: "conv6_2/dwise/bn"
  param {
    lr_mult: 1
    decay_mult: 0
  }
  param {
    lr_mult: 1
    decay_mult: 0
  }
  scale_param {
    bias_term: true
  }
}
layer {
  name: "relu6_2/dwise"
  type: "ReLU"
  bottom: "conv6_2/dwise/bn"
  top: "conv6_2/dwise/bn"
}
layer {
  name: "conv6_2/linear"
  type: "Convolution"
  bottom: "conv6_2/dwise/bn"
  top: "conv6_2/linear"
  param {
    lr_mult: 1
    decay_mult: 1
  }
  convolution_param {
    num_output: 160
    bias_term: false
    kernel_size: 1
    weight_filler {
      type: "msra"
    }
  }
}
layer {
  name: "conv6_2/linear/bn"
  type: "BatchNorm"
  bottom: "conv6_2/linear"
  top: "conv6_2/linear/bn"
  param {
    lr_mult: 0
    decay_mult: 0
  }
  param {
    lr_mult: 0
    decay_mult: 0
  }
  param {
    lr_mult: 0
    decay_mult: 0
  }
  batch_norm_param {
    use_global_stats: true
    eps: 1e-5
  }
}
layer {
  name: "conv6_2/linear/scale"
  type: "Scale"
  bottom: "conv6_2/linear/bn"
  top: "conv6_2/linear/bn"
  param {
    lr_mult: 1
    decay_mult: 0
  }
  param {
    lr_mult: 1
    decay_mult: 0
  }
  scale_param {
    bias_term: true
  }
}
layer {
  name: "block_6_2"
  type: "Eltwise"
  bottom: "block_6_1"
  bottom: "conv6_2/linear/bn"
  top: "block_6_2"
}
layer {
  name: "conv6_3/expand"
  type: "Convolution"
  bottom: "block_6_2"
  top: "conv6_3/expand"
  param {
    lr_mult: 1
    decay_mult: 1
  }
  convolution_param {
    num_output: 960
    bias_term: false
    kernel_size: 1
    weight_filler {
      type: "msra"
    }
  }
}
layer {
  name: "conv6_3/expand/bn"
  type: "BatchNorm"
  bottom: "conv6_3/expand"
  top: "conv6_3/expand/bn"
  param {
    lr_mult: 0
    decay_mult: 0
  }
  param {
    lr_mult: 0
    decay_mult: 0
  }
  param {
    lr_mult: 0
    decay_mult: 0
  }
  batch_norm_param {
    use_global_stats: true
    eps: 1e-5
  }
}
layer {
  name: "conv6_3/expand/scale"
  type: "Scale"
  bottom: "conv6_3/expand/bn"
  top: "conv6_3/expand/bn"
  param {
    lr_mult: 1
    decay_mult: 0
  }
  param {
    lr_mult: 1
    decay_mult: 0
  }
  scale_param {
    bias_term: true
  }
}
layer {
  name: "relu6_3/expand"
  type: "ReLU"
  bottom: "conv6_3/expand/bn"
  top: "conv6_3/expand/bn"
}
layer {
  name: "conv6_3/dwise"
  type: "DepthwiseConvolution"
  bottom: "conv6_3/expand/bn"
  top: "conv6_3/dwise"
  param {
    lr_mult: 1
    decay_mult: 1
  }
  convolution_param {
    num_output: 960
    bias_term: false
    pad: 1
    kernel_size: 3
    group: 960
    weight_filler {
      type: "msra"
    }
    engine: CAFFE
  }
}
layer {
  name: "conv6_3/dwise/bn"
  type: "BatchNorm"
  bottom: "conv6_3/dwise"
  top: "conv6_3/dwise/bn"
  param {
    lr_mult: 0
    decay_mult: 0
  }
  param {
    lr_mult: 0
    decay_mult: 0
  }
  param {
    lr_mult: 0
    decay_mult: 0
  }
  batch_norm_param {
    use_global_stats: true
    eps: 1e-5
  }
}
layer {
  name: "conv6_3/dwise/scale"
  type: "Scale"
  bottom: "conv6_3/dwise/bn"
  top: "conv6_3/dwise/bn"
  param {
    lr_mult: 1
    decay_mult: 0
  }
  param {
    lr_mult: 1
    decay_mult: 0
  }
  scale_param {
    bias_term: true
  }
}
layer {
  name: "relu6_3/dwise"
  type: "ReLU"
  bottom: "conv6_3/dwise/bn"
  top: "conv6_3/dwise/bn"
}
layer {
  name: "conv6_3/linear"
  type: "Convolution"
  bottom: "conv6_3/dwise/bn"
  top: "conv6_3/linear"
  param {
    lr_mult: 1
    decay_mult: 1
  }
  convolution_param {
    num_output: 320
    bias_term: false
    kernel_size: 1
    weight_filler {
      type: "msra"
    }
  }
}
layer {
  name: "conv6_3/linear/bn"
  type: "BatchNorm"
  bottom: "conv6_3/linear"
  top: "conv6_3/linear/bn"
  param {
    lr_mult: 0
    decay_mult: 0
  }
  param {
    lr_mult: 0
    decay_mult: 0
  }
  param {
    lr_mult: 0
    decay_mult: 0
  }
  batch_norm_param {
    use_global_stats: true
    eps: 1e-5
  }
}
layer {
  name: "conv6_3/linear/scale"
  type: "Scale"
  bottom: "conv6_3/linear/bn"
  top: "conv6_3/linear/bn"
  param {
    lr_mult: 1
    decay_mult: 0
  }
  param {
    lr_mult: 1
    decay_mult: 0
  }
  scale_param {
    bias_term: true
  }
}
layer {
  name: "conv6_4"
  type: "Convolution"
  bottom: "conv6_3/linear/bn"
  top: "conv6_4"
  param {
    lr_mult: 1
    decay_mult: 1
  }
  convolution_param {
    num_output: 1280
    bias_term: false
    kernel_size: 1
    weight_filler {
      type: "msra"
    }
  }
}
layer {
  name: "conv6_4/bn"
  type: "BatchNorm"
  bottom: "conv6_4"
  top: "conv6_4/bn"
  param {
    lr_mult: 0
    decay_mult: 0
  }
  param {
    lr_mult: 0
    decay_mult: 0
  }
  param {
    lr_mult: 0
    decay_mult: 0
  }
  batch_norm_param {
    use_global_stats: true
    eps: 1e-5
  }
}
layer {
  name: "conv6_4/scale"
  type: "Scale"
  bottom: "conv6_4/bn"
  top: "conv6_4/bn"
  param {
    lr_mult: 1
    decay_mult: 0
  }
  param {
    lr_mult: 1
    decay_mult: 0
  }
  scale_param {
    bias_term: true
  }
}
layer {
  name: "relu6_4"
  type: "ReLU"
  bottom: "conv6_4/bn"
  top: "conv6_4/bn"
}


layer {
  name: "res6_branch1"
  type: "Convolution"
  bottom: "conv6_4/bn"
  top: "res6_branch1"
  param {
    lr_mult: 1
    decay_mult: 1
  }
  convolution_param {
    num_output: 512
    bias_term: false
    pad: 0
    kernel_size: 1
    stride: 2
    weight_filler {
      type: "gaussian"
      std: 0.01
    }
  }
}
layer {
  name: "bn6_branch1"
  type: "BatchNorm"
  bottom: "res6_branch1"
  top: "res6_branch1"
}
layer {
  name: "scale6_branch1"
  type: "Scale"
  bottom: "res6_branch1"
  top: "res6_branch1"
  scale_param {
    bias_term: true
  }
}
layer {
  name: "res6_branch2a"
  type: "Convolution"
  bottom: "conv6_4/bn"
  top: "res6_branch2a"
  param {
    lr_mult: 1
    decay_mult: 1
  }
  convolution_param {
    num_output: 128
    bias_term: false
    pad: 0
    kernel_size: 1
    stride: 2
    weight_filler {
      type: "gaussian"
      std: 0.01
    }
  }
}
layer {
  name: "bn6_branch2a"
  type: "BatchNorm"
  bottom: "res6_branch2a"
  top: "res6_branch2a"
}
layer {
  name: "scale6_branch2a"
  type: "Scale"
  bottom: "res6_branch2a"
  top: "res6_branch2a"
  scale_param {
    bias_term: true
  }
}
layer {
  name: "res6_branch2a_relu"
  type: "ReLU"
  bottom: "res6_branch2a"
  top: "res6_branch2a"
}
layer {
  name: "res6_branch2b"
  type: "Convolution"
  bottom: "res6_branch2a"
  top: "res6_branch2b"
  param {
    lr_mult: 1
    decay_mult: 1
  }
  convolution_param {
    num_output: 128
    bias_term: false
    pad: 1
    kernel_size: 3
    stride: 1
    weight_filler {
      type: "gaussian"
      std: 0.01
    }
  }
}
layer {
  name: "bn6_branch2b"
  type: "BatchNorm"
  bottom: "res6_branch2b"
  top: "res6_branch2b"
}
layer {
  name: "scale6_branch2b"
  type: "Scale"
  bottom: "res6_branch2b"
  top: "res6_branch2b"
  scale_param {
    bias_term: true
  }
}
layer {
  name: "res6_branch2b_relu"
  type: "ReLU"
  bottom: "res6_branch2b"
  top: "res6_branch2b"
}
layer {
  name: "res6_branch2c"
  type: "Convolution"
  bottom: "res6_branch2b"
  top: "res6_branch2c"
  param {
    lr_mult: 1
    decay_mult: 1
  }
  convolution_param {
    num_output: 512
    bias_term: false
    pad: 0
    kernel_size: 1
    stride: 1
    weight_filler {
      type: "gaussian"
      std: 0.01
    }
  }
}
layer {
  name: "bn6_branch2c"
  type: "BatchNorm"
  bottom: "res6_branch2c"
  top: "res6_branch2c"
}
layer {
  name: "scale6_branch2c"
  type: "Scale"
  bottom: "res6_branch2c"
  top: "res6_branch2c"
  scale_param {
    bias_term: true
  }
}
layer {
  name: "res6"
  type: "Eltwise"
  bottom: "res6_branch1"
  bottom: "res6_branch2c"
  top: "res6"
}
layer {
  name: "res6_relu"
  type: "ReLU"
  bottom: "res6"
  top: "res6"
}
layer {
  name: "TL6_1"
  type: "Convolution"
  bottom: "res6"
  top: "TL6_1"
  param {
    lr_mult: 1
    decay_mult: 1
  }
  convolution_param {
    num_output: 256
    bias_term: false
    pad: 1
    kernel_size: 3
    stride: 1
    weight_filler {
      type: "gaussian"
      std: 0.01
    }
  }
}
layer {
  name: "TL6_1_bn"
  type: "BatchNorm"
  bottom: "TL6_1"
  top: "TL6_1"
}
layer {
  name: "TL6_1_scale"
  type: "Scale"
  bottom: "TL6_1"
  top: "TL6_1"
  scale_param {
    bias_term: true
  }
}
layer {
  name: "TL6_1_relu"
  type: "ReLU"
  bottom: "TL6_1"
  top: "TL6_1"
}
layer {
  name: "TL6_2"
  type: "Convolution"
  bottom: "TL6_1"
  top: "TL6_2"
  param {
    lr_mult: 1
    decay_mult: 1
  }
  convolution_param {
    num_output: 256
    bias_term: false
    pad: 1
    kernel_size: 3
    stride: 1
    weight_filler {
      type: "gaussian"
      std: 0.01
    }
  }
}
layer {
  name: "TL6_2_bn"
  type: "BatchNorm"
  bottom: "TL6_2"
  top: "TL6_2"
}
layer {
  name: "TL6_2_scale"
  type: "Scale"
  bottom: "TL6_2"
  top: "TL6_2"
  scale_param {
    bias_term: true
  }
}
layer {
  name: "TL6_2_relu"
  type: "ReLU"
  bottom: "TL6_2"
  top: "TL6_2"
}
layer {
  name: "P6"
  type: "Convolution"
  bottom: "TL6_2"
  top: "P6"
  param {
    lr_mult: 1
    decay_mult: 1
  }
  convolution_param {
    num_output: 256
    bias_term: false
    pad: 1
    kernel_size: 3
    stride: 1
    weight_filler {
      type: "gaussian"
      std: 0.01
    }
  }
}
layer {
  name: "P6_bn"
  type: "BatchNorm"
  bottom: "P6"
  top: "P6"
}
layer {
  name: "P6_scale"
  type: "Scale"
  bottom: "P6"
  top: "P6"
  scale_param {
    bias_term: true
  }
}
layer {
  name: "P6_relu"
  type: "ReLU"
  bottom: "P6"
  top: "P6"
}
layer {
  name: "TL5_1"
  type: "Convolution"
  bottom: "conv6_4/bn"
  top: "TL5_1"
  param {
    lr_mult: 1
    decay_mult: 1
  }
  convolution_param {
    num_output: 256
    bias_term: false
    pad: 1
    kernel_size: 3
    stride: 1
    weight_filler {
      type: "gaussian"
      std: 0.01
    }
  }
}
layer {
  name: "TL5_1_bn"
  type: "BatchNorm"
  bottom: "TL5_1"
  top: "TL5_1"
}
layer {
  name: "TL5_1_scale"
  type: "Scale"
  bottom: "TL5_1"
  top: "TL5_1"
  scale_param {
    bias_term: true
  }
}
layer {
  name: "TL5_1_relu"
  type: "ReLU"
  bottom: "TL5_1"
  top: "TL5_1"
}
layer {
  name: "TL5_2"
  type: "Convolution"
  bottom: "TL5_1"
  top: "TL5_2"
  param {
    lr_mult: 1
    decay_mult: 1
  }
  convolution_param {
    num_output: 256
    bias_term: false
    pad: 1
    kernel_size: 3
    stride: 1
    weight_filler {
      type: "gaussian"
      std: 0.01
    }
  }
}
layer {
  name: "TL5_2_bn"
  type: "BatchNorm"
  bottom: "TL5_2"
  top: "TL5_2"
}
layer {
  name: "TL5_2_scale"
  type: "Scale"
  bottom: "TL5_2"
  top: "TL5_2"
  scale_param {
    bias_term: true
  }
}
layer {
  name: "P6-up"
  type: "Deconvolution"
  bottom: "P6"
  top: "P6-up"
  param {
    lr_mult: 1
    decay_mult: 1
  }
  convolution_param {
    num_output: 256
    bias_term: false
    pad: 0
    kernel_size: 2
    stride: 2
    weight_filler {
      type: "gaussian"
      std: 0.01
    }
  }
}
layer {
  name: "P6-up_bn"
  type: "BatchNorm"
  bottom: "P6-up"
  top: "P6-up"
}
layer {
  name: "P6-up_scale"
  type: "Scale"
  bottom: "P6-up"
  top: "P6-up"
  scale_param {
    bias_term: true
  }
}
layer {
  name: "Elt5"
  type: "Eltwise"
  bottom: "TL5_2"
  bottom: "P6-up"
  top: "Elt5"
}
layer {
  name: "Elt5_relu"
  type: "ReLU"
  bottom: "Elt5"
  top: "Elt5"
}
layer {
  name: "P5"
  type: "Convolution"
  bottom: "Elt5"
  top: "P5"
  param {
    lr_mult: 1
    decay_mult: 1
  }
  convolution_param {
    num_output: 256
    bias_term: false
    pad: 1
    kernel_size: 3
    stride: 1
    weight_filler {
      type: "gaussian"
      std: 0.01
    }
  }
}
layer {
  name: "P5_bn"
  type: "BatchNorm"
  bottom: "P5"
  top: "P5"
}
layer {
  name: "P5_scale"
  type: "Scale"
  bottom: "P5"
  top: "P5"
  scale_param {
    bias_term: true
  }
}
layer {
  name: "P5_relu"
  type: "ReLU"
  bottom: "P5"
  top: "P5"
}
layer {
  name: "TL4_1"
  type: "Convolution"
  bottom: "conv5_3/expand/bn"
  top: "TL4_1"
  param {
    lr_mult: 1
    decay_mult: 1
  }
  convolution_param {
    num_output: 256
    bias_term: false
    pad: 1
    kernel_size: 3
    stride: 1
    weight_filler {
      type: "gaussian"
      std: 0.01
    }
  }
}
layer {
  name: "TL4_1_bn"
  type: "BatchNorm"
  bottom: "TL4_1"
  top: "TL4_1"
}
layer {
  name: "TL4_1_scale"
  type: "Scale"
  bottom: "TL4_1"
  top: "TL4_1"
  scale_param {
    bias_term: true
  }
}
layer {
  name: "TL4_1_relu"
  type: "ReLU"
  bottom: "TL4_1"
  top: "TL4_1"
}
layer {
  name: "TL4_2"
  type: "Convolution"
  bottom: "TL4_1"
  top: "TL4_2"
  param {
    lr_mult: 1
    decay_mult: 1
  }
  convolution_param {
    num_output: 256
    bias_term: false
    pad: 1
    kernel_size: 3
    stride: 1
    weight_filler {
      type: "gaussian"
      std: 0.01
    }
  }
}
layer {
  name: "TL4_2_bn"
  type: "BatchNorm"
  bottom: "TL4_2"
  top: "TL4_2"
}
layer {
  name: "TL4_2_scale"
  type: "Scale"
  bottom: "TL4_2"
  top: "TL4_2"
  scale_param {
    bias_term: true
  }
}
layer {
  name: "P5-up"
  type: "Deconvolution"
  bottom: "P5"
  top: "P5-up"
  param {
    lr_mult: 1
    decay_mult: 1
  }
  convolution_param {
    num_output: 256
    bias_term: false
    pad: 0
    kernel_size: 2
    stride: 2
    weight_filler {
      type: "gaussian"
      std: 0.01
    }
  }
}
layer {
  name: "P5-up_bn"
  type: "BatchNorm"
  bottom: "P5-up"
  top: "P5-up"
}
layer {
  name: "P5-up_scale"
  type: "Scale"
  bottom: "P5-up"
  top: "P5-up"
  scale_param {
    bias_term: true
  }
}
layer {
  name: "Elt4"
  type: "Eltwise"
  bottom: "TL4_2"
  bottom: "P5-up"
  top: "Elt4"
}
layer {
  name: "Elt4_relu"
  type: "ReLU"
  bottom: "Elt4"
  top: "Elt4"
}
layer {
  name: "P4"
  type: "Convolution"
  bottom: "Elt4"
  top: "P4"
  param {
    lr_mult: 1
    decay_mult: 1
  }
  convolution_param {
    num_output: 256
    bias_term: false
    pad: 1
    kernel_size: 3
    stride: 1
    weight_filler {
      type: "gaussian"
      std: 0.01
    }
  }
}
layer {
  name: "P4_bn"
  type: "BatchNorm"
  bottom: "P4"
  top: "P4"
}
layer {
  name: "P4_scale"
  type: "Scale"
  bottom: "P4"
  top: "P4"
  scale_param {
    bias_term: true
  }
}
layer {
  name: "P4_relu"
  type: "ReLU"
  bottom: "P4"
  top: "P4"
}
layer {
  name: "TL3_1"
  type: "Convolution"
  bottom: "conv4_7/expand/bn"
  top: "TL3_1"
  param {
    lr_mult: 1
    decay_mult: 1
  }
  convolution_param {
    num_output: 256
    bias_term: false
    pad: 1
    kernel_size: 3
    stride: 1
    weight_filler {
      type: "gaussian"
      std: 0.01
    }
  }
}
layer {
  name: "TL3_1_bn"
  type: "BatchNorm"
  bottom: "TL3_1"
  top: "TL3_1"
}
layer {
  name: "TL3_1_scale"
  type: "Scale"
  bottom: "TL3_1"
  top: "TL3_1"
  scale_param {
    bias_term: true
  }
}
layer {
  name: "TL3_1_relu"
  type: "ReLU"
  bottom: "TL3_1"
  top: "TL3_1"
}
layer {
  name: "TL3_2"
  type: "Convolution"
  bottom: "TL3_1"
  top: "TL3_2"
  param {
    lr_mult: 1
    decay_mult: 1
  }
  convolution_param {
    num_output: 256
    bias_term: false
    pad: 1
    kernel_size: 3
    stride: 1
    weight_filler {
      type: "gaussian"
      std: 0.01
    }
  }
}
layer {
  name: "TL3_2_bn"
  type: "BatchNorm"
  bottom: "TL3_2"
  top: "TL3_2"
}
layer {
  name: "TL3_2_scale"
  type: "Scale"
  bottom: "TL3_2"
  top: "TL3_2"
  scale_param {
    bias_term: true
  }
}
layer {
  name: "P4-up"
  type: "Deconvolution"
  bottom: "P4"
  top: "P4-up"
  param {
    lr_mult: 1
    decay_mult: 1
  }
  convolution_param {
    num_output: 256
    bias_term: false
    pad: 0
    kernel_size: 2
    stride: 2
    weight_filler {
      type: "gaussian"
      std: 0.01
    }
  }
}
layer {
  name: "P4-up_bn"
  type: "BatchNorm"
  bottom: "P4-up"
  top: "P4-up"
}
layer {
  name: "P4-up_scale"
  type: "Scale"
  bottom: "P4-up"
  top: "P4-up"
  scale_param {
    bias_term: true
  }
}
layer {
  name: "Elt3"
  type: "Eltwise"
  bottom: "TL3_2"
  bottom: "P4-up"
  top: "Elt3"
}
layer {
  name: "Elt3_relu"
  type: "ReLU"
  bottom: "Elt3"
  top: "Elt3"
}
layer {
  name: "P3"
  type: "Convolution"
  bottom: "Elt3"
  top: "P3"
  param {
    lr_mult: 1
    decay_mult: 1
  }
  convolution_param {
    num_output: 256
    bias_term: false
    pad: 1
    kernel_size: 3
    stride: 1
    weight_filler {
      type: "gaussian"
      std: 0.01
    }
  }
}
layer {
  name: "P3_bn"
  type: "BatchNorm"
  bottom: "P3"
  top: "P3"
}
layer {
  name: "P3_scale"
  type: "Scale"
  bottom: "P3"
  top: "P3"
  scale_param {
    bias_term: true
  }
}
layer {
  name: "P3_relu"
  type: "ReLU"
  bottom: "P3"
  top: "P3"
}
layer {
  name: "resres3b3_relu_inter_branch1"
  type: "Convolution"
  bottom: "conv4_7/expand/bn"
  top: "resres3b3_relu_inter_branch1"
  param {
    lr_mult: 1
    decay_mult: 1
  }
  convolution_param {
    num_output: 1024
    bias_term: false
    pad: 0
    kernel_size: 1
    stride: 1
    weight_filler {
      type: "gaussian"
      std: 0.01
    }
  }
}
layer {
  name: "bnres3b3_relu_inter_branch1"
  type: "BatchNorm"
  bottom: "resres3b3_relu_inter_branch1"
  top: "resres3b3_relu_inter_branch1"
}
layer {
  name: "scaleres3b3_relu_inter_branch1"
  type: "Scale"
  bottom: "resres3b3_relu_inter_branch1"
  top: "resres3b3_relu_inter_branch1"
  scale_param {
    bias_term: true
  }
}
layer {
  name: "resres3b3_relu_inter_branch2a"
  type: "Convolution"
  bottom: "conv4_7/expand/bn"
  top: "resres3b3_relu_inter_branch2a"
  param {
    lr_mult: 1
    decay_mult: 1
  }
  convolution_param {
    num_output: 256
    bias_term: false
    pad: 0
    kernel_size: 1
    stride: 1
    weight_filler {
      type: "gaussian"
      std: 0.01
    }
  }
}
layer {
  name: "bnres3b3_relu_inter_branch2a"
  type: "BatchNorm"
  bottom: "resres3b3_relu_inter_branch2a"
  top: "resres3b3_relu_inter_branch2a"
}
layer {
  name: "scaleres3b3_relu_inter_branch2a"
  type: "Scale"
  bottom: "resres3b3_relu_inter_branch2a"
  top: "resres3b3_relu_inter_branch2a"
  scale_param {
    bias_term: true
  }
}
layer {
  name: "resres3b3_relu_inter_branch2a_relu"
  type: "ReLU"
  bottom: "resres3b3_relu_inter_branch2a"
  top: "resres3b3_relu_inter_branch2a"
}
layer {
  name: "resres3b3_relu_inter_branch2b"
  type: "Convolution"
  bottom: "resres3b3_relu_inter_branch2a"
  top: "resres3b3_relu_inter_branch2b"
  param {
    lr_mult: 1
    decay_mult: 1
  }
  convolution_param {
    num_output: 256
    bias_term: false
    pad: 1
    kernel_size: 3
    stride: 1
    weight_filler {
      type: "gaussian"
      std: 0.01
    }
  }
}
layer {
  name: "bnres3b3_relu_inter_branch2b"
  type: "BatchNorm"
  bottom: "resres3b3_relu_inter_branch2b"
  top: "resres3b3_relu_inter_branch2b"
}
layer {
  name: "scaleres3b3_relu_inter_branch2b"
  type: "Scale"
  bottom: "resres3b3_relu_inter_branch2b"
  top: "resres3b3_relu_inter_branch2b"
  scale_param {
    bias_term: true
  }
}
layer {
  name: "resres3b3_relu_inter_branch2b_relu"
  type: "ReLU"
  bottom: "resres3b3_relu_inter_branch2b"
  top: "resres3b3_relu_inter_branch2b"
}
layer {
  name: "resres3b3_relu_inter_branch2c"
  type: "Convolution"
  bottom: "resres3b3_relu_inter_branch2b"
  top: "resres3b3_relu_inter_branch2c"
  param {
    lr_mult: 1
    decay_mult: 1
  }
  convolution_param {
    num_output: 1024
    bias_term: false
    pad: 0
    kernel_size: 1
    stride: 1
    weight_filler {
      type: "gaussian"
      std: 0.01
    }
  }
}
layer {
  name: "bnres3b3_relu_inter_branch2c"
  type: "BatchNorm"
  bottom: "resres3b3_relu_inter_branch2c"
  top: "resres3b3_relu_inter_branch2c"
}
layer {
  name: "scaleres3b3_relu_inter_branch2c"
  type: "Scale"
  bottom: "resres3b3_relu_inter_branch2c"
  top: "resres3b3_relu_inter_branch2c"
  scale_param {
    bias_term: true
  }
}
layer {
  name: "resres3b3_relu_inter"
  type: "Eltwise"
  bottom: "resres3b3_relu_inter_branch1"
  bottom: "resres3b3_relu_inter_branch2c"
  top: "resres3b3_relu_inter"
}
layer {
  name: "resres3b3_relu_inter_relu"
  type: "ReLU"
  bottom: "resres3b3_relu_inter"
  top: "resres3b3_relu_inter"
}
layer {
  name: "resres3b3_relu_inter_mbox_loc"
  type: "Convolution"
  bottom: "resres3b3_relu_inter"
  top: "resres3b3_relu_inter_mbox_loc"
  param {
    lr_mult: 1
    decay_mult: 1
  }
  param {
    lr_mult: 2
    decay_mult: 0
  }
  convolution_param {
    num_output: 12
    pad: 1
    kernel_size: 3
    stride: 1
    weight_filler {
      type: "xavier"
    }
    bias_filler {
      type: "constant"
      value: 0
    }
  }
}
layer {
  name: "resres3b3_relu_inter_mbox_loc_perm"
  type: "Permute"
  bottom: "resres3b3_relu_inter_mbox_loc"
  top: "resres3b3_relu_inter_mbox_loc_perm"
  permute_param {
    order: 0
    order: 2
    order: 3
    order: 1
  }
}
layer {
  name: "resres3b3_relu_inter_mbox_loc_flat"
  type: "Flatten"
  bottom: "resres3b3_relu_inter_mbox_loc_perm"
  top: "resres3b3_relu_inter_mbox_loc_flat"
  flatten_param {
    axis: 1
  }
}
layer {
  name: "resres3b3_relu_inter_mbox_conf"
  type: "Convolution"
  bottom: "resres3b3_relu_inter"
  top: "resres3b3_relu_inter_mbox_conf"
  param {
    lr_mult: 1
    decay_mult: 1
  }
  param {
    lr_mult: 2
    decay_mult: 0
  }
  convolution_param {
    num_output: 6
    pad: 1
    kernel_size: 3
    stride: 1
    weight_filler {
      type: "xavier"
    }
    bias_filler {
      type: "constant"
      value: 0
    }
  }
}
layer {
  name: "resres3b3_relu_inter_mbox_conf_perm"
  type: "Permute"
  bottom: "resres3b3_relu_inter_mbox_conf"
  top: "resres3b3_relu_inter_mbox_conf_perm"
  permute_param {
    order: 0
    order: 2
    order: 3
    order: 1
  }
}
layer {
  name: "resres3b3_relu_inter_mbox_conf_flat"
  type: "Flatten"
  bottom: "resres3b3_relu_inter_mbox_conf_perm"
  top: "resres3b3_relu_inter_mbox_conf_flat"
  flatten_param {
    axis: 1
  }
}
layer {
  name: "resres3b3_relu_inter_mbox_priorbox"
  type: "PriorBox"
  bottom: "resres3b3_relu_inter"
  bottom: "data"
  top: "resres3b3_relu_inter_mbox_priorbox"
  prior_box_param {
    min_size: 32
    aspect_ratio: 2
    flip: true
    clip: false
    variance: 0.1
    variance: 0.1
    variance: 0.2
    variance: 0.2
    step: 8
    offset: 0.5
  }
}
layer {
  name: "resres4b22_relu_inter_branch1"
  type: "Convolution"
  bottom: "conv5_3/expand/bn"
  top: "resres4b22_relu_inter_branch1"
  param {
    lr_mult: 1
    decay_mult: 1
  }
  convolution_param {
    num_output: 1024
    bias_term: false
    pad: 0
    kernel_size: 1
    stride: 1
    weight_filler {
      type: "gaussian"
      std: 0.01
    }
  }
}
layer {
  name: "bnres4b22_relu_inter_branch1"
  type: "BatchNorm"
  bottom: "resres4b22_relu_inter_branch1"
  top: "resres4b22_relu_inter_branch1"
}
layer {
  name: "scaleres4b22_relu_inter_branch1"
  type: "Scale"
  bottom: "resres4b22_relu_inter_branch1"
  top: "resres4b22_relu_inter_branch1"
  scale_param {
    bias_term: true
  }
}
layer {
  name: "resres4b22_relu_inter_branch2a"
  type: "Convolution"
  bottom: "conv5_3/expand/bn"
  top: "resres4b22_relu_inter_branch2a"
  param {
    lr_mult: 1
    decay_mult: 1
  }
  convolution_param {
    num_output: 256
    bias_term: false
    pad: 0
    kernel_size: 1
    stride: 1
    weight_filler {
      type: "gaussian"
      std: 0.01
    }
  }
}
layer {
  name: "bnres4b22_relu_inter_branch2a"
  type: "BatchNorm"
  bottom: "resres4b22_relu_inter_branch2a"
  top: "resres4b22_relu_inter_branch2a"
}
layer {
  name: "scaleres4b22_relu_inter_branch2a"
  type: "Scale"
  bottom: "resres4b22_relu_inter_branch2a"
  top: "resres4b22_relu_inter_branch2a"
  scale_param {
    bias_term: true
  }
}
layer {
  name: "resres4b22_relu_inter_branch2a_relu"
  type: "ReLU"
  bottom: "resres4b22_relu_inter_branch2a"
  top: "resres4b22_relu_inter_branch2a"
}
layer {
  name: "resres4b22_relu_inter_branch2b"
  type: "Convolution"
  bottom: "resres4b22_relu_inter_branch2a"
  top: "resres4b22_relu_inter_branch2b"
  param {
    lr_mult: 1
    decay_mult: 1
  }
  convolution_param {
    num_output: 256
    bias_term: false
    pad: 1
    kernel_size: 3
    stride: 1
    weight_filler {
      type: "gaussian"
      std: 0.01
    }
  }
}
layer {
  name: "bnres4b22_relu_inter_branch2b"
  type: "BatchNorm"
  bottom: "resres4b22_relu_inter_branch2b"
  top: "resres4b22_relu_inter_branch2b"
}
layer {
  name: "scaleres4b22_relu_inter_branch2b"
  type: "Scale"
  bottom: "resres4b22_relu_inter_branch2b"
  top: "resres4b22_relu_inter_branch2b"
  scale_param {
    bias_term: true
  }
}
layer {
  name: "resres4b22_relu_inter_branch2b_relu"
  type: "ReLU"
  bottom: "resres4b22_relu_inter_branch2b"
  top: "resres4b22_relu_inter_branch2b"
}
layer {
  name: "resres4b22_relu_inter_branch2c"
  type: "Convolution"
  bottom: "resres4b22_relu_inter_branch2b"
  top: "resres4b22_relu_inter_branch2c"
  param {
    lr_mult: 1
    decay_mult: 1
  }
  convolution_param {
    num_output: 1024
    bias_term: false
    pad: 0
    kernel_size: 1
    stride: 1
    weight_filler {
      type: "gaussian"
      std: 0.01
    }
  }
}
layer {
  name: "bnres4b22_relu_inter_branch2c"
  type: "BatchNorm"
  bottom: "resres4b22_relu_inter_branch2c"
  top: "resres4b22_relu_inter_branch2c"
}
layer {
  name: "scaleres4b22_relu_inter_branch2c"
  type: "Scale"
  bottom: "resres4b22_relu_inter_branch2c"
  top: "resres4b22_relu_inter_branch2c"
  scale_param {
    bias_term: true
  }
}
layer {
  name: "resres4b22_relu_inter"
  type: "Eltwise"
  bottom: "resres4b22_relu_inter_branch1"
  bottom: "resres4b22_relu_inter_branch2c"
  top: "resres4b22_relu_inter"
}
layer {
  name: "resres4b22_relu_inter_relu"
  type: "ReLU"
  bottom: "resres4b22_relu_inter"
  top: "resres4b22_relu_inter"
}
layer {
  name: "resres4b22_relu_inter_mbox_loc"
  type: "Convolution"
  bottom: "resres4b22_relu_inter"
  top: "resres4b22_relu_inter_mbox_loc"
  param {
    lr_mult: 1
    decay_mult: 1
  }
  param {
    lr_mult: 2
    decay_mult: 0
  }
  convolution_param {
    num_output: 12
    pad: 1
    kernel_size: 3
    stride: 1
    weight_filler {
      type: "xavier"
    }
    bias_filler {
      type: "constant"
      value: 0
    }
  }
}
layer {
  name: "resres4b22_relu_inter_mbox_loc_perm"
  type: "Permute"
  bottom: "resres4b22_relu_inter_mbox_loc"
  top: "resres4b22_relu_inter_mbox_loc_perm"
  permute_param {
    order: 0
    order: 2
    order: 3
    order: 1
  }
}
layer {
  name: "resres4b22_relu_inter_mbox_loc_flat"
  type: "Flatten"
  bottom: "resres4b22_relu_inter_mbox_loc_perm"
  top: "resres4b22_relu_inter_mbox_loc_flat"
  flatten_param {
    axis: 1
  }
}
layer {
  name: "resres4b22_relu_inter_mbox_conf"
  type: "Convolution"
  bottom: "resres4b22_relu_inter"
  top: "resres4b22_relu_inter_mbox_conf"
  param {
    lr_mult: 1
    decay_mult: 1
  }
  param {
    lr_mult: 2
    decay_mult: 0
  }
  convolution_param {
    num_output: 6
    pad: 1
    kernel_size: 3
    stride: 1
    weight_filler {
      type: "xavier"
    }
    bias_filler {
      type: "constant"
      value: 0
    }
  }
}
layer {
  name: "resres4b22_relu_inter_mbox_conf_perm"
  type: "Permute"
  bottom: "resres4b22_relu_inter_mbox_conf"
  top: "resres4b22_relu_inter_mbox_conf_perm"
  permute_param {
    order: 0
    order: 2
    order: 3
    order: 1
  }
}
layer {
  name: "resres4b22_relu_inter_mbox_conf_flat"
  type: "Flatten"
  bottom: "resres4b22_relu_inter_mbox_conf_perm"
  top: "resres4b22_relu_inter_mbox_conf_flat"
  flatten_param {
    axis: 1
  }
}
layer {
  name: "resres4b22_relu_inter_mbox_priorbox"
  type: "PriorBox"
  bottom: "resres4b22_relu_inter"
  bottom: "data"
  top: "resres4b22_relu_inter_mbox_priorbox"
  prior_box_param {
    min_size: 64
    aspect_ratio: 2
    flip: true
    clip: false
    variance: 0.1
    variance: 0.1
    variance: 0.2
    variance: 0.2
    step: 16
    offset: 0.5
  }
}
layer {
  name: "resres5c_relu_inter_branch1"
  type: "Convolution"
  bottom: "conv6_4/bn"
  top: "resres5c_relu_inter_branch1"
  param {
    lr_mult: 1
    decay_mult: 1
  }
  convolution_param {
    num_output: 1024
    bias_term: false
    pad: 0
    kernel_size: 1
    stride: 1
    weight_filler {
      type: "gaussian"
      std: 0.01
    }
  }
}
layer {
  name: "bnres5c_relu_inter_branch1"
  type: "BatchNorm"
  bottom: "resres5c_relu_inter_branch1"
  top: "resres5c_relu_inter_branch1"
}
layer {
  name: "scaleres5c_relu_inter_branch1"
  type: "Scale"
  bottom: "resres5c_relu_inter_branch1"
  top: "resres5c_relu_inter_branch1"
  scale_param {
    bias_term: true
  }
}
layer {
  name: "resres5c_relu_inter_branch2a"
  type: "Convolution"
  bottom: "conv6_4/bn"
  top: "resres5c_relu_inter_branch2a"
  param {
    lr_mult: 1
    decay_mult: 1
  }
  convolution_param {
    num_output: 256
    bias_term: false
    pad: 0
    kernel_size: 1
    stride: 1
    weight_filler {
      type: "gaussian"
      std: 0.01
    }
  }
}
layer {
  name: "bnres5c_relu_inter_branch2a"
  type: "BatchNorm"
  bottom: "resres5c_relu_inter_branch2a"
  top: "resres5c_relu_inter_branch2a"
}
layer {
  name: "scaleres5c_relu_inter_branch2a"
  type: "Scale"
  bottom: "resres5c_relu_inter_branch2a"
  top: "resres5c_relu_inter_branch2a"
  scale_param {
    bias_term: true
  }
}
layer {
  name: "resres5c_relu_inter_branch2a_relu"
  type: "ReLU"
  bottom: "resres5c_relu_inter_branch2a"
  top: "resres5c_relu_inter_branch2a"
}
layer {
  name: "resres5c_relu_inter_branch2b"
  type: "Convolution"
  bottom: "resres5c_relu_inter_branch2a"
  top: "resres5c_relu_inter_branch2b"
  param {
    lr_mult: 1
    decay_mult: 1
  }
  convolution_param {
    num_output: 256
    bias_term: false
    pad: 1
    kernel_size: 3
    stride: 1
    weight_filler {
      type: "gaussian"
      std: 0.01
    }
  }
}
layer {
  name: "bnres5c_relu_inter_branch2b"
  type: "BatchNorm"
  bottom: "resres5c_relu_inter_branch2b"
  top: "resres5c_relu_inter_branch2b"
}
layer {
  name: "scaleres5c_relu_inter_branch2b"
  type: "Scale"
  bottom: "resres5c_relu_inter_branch2b"
  top: "resres5c_relu_inter_branch2b"
  scale_param {
    bias_term: true
  }
}
layer {
  name: "resres5c_relu_inter_branch2b_relu"
  type: "ReLU"
  bottom: "resres5c_relu_inter_branch2b"
  top: "resres5c_relu_inter_branch2b"
}
layer {
  name: "resres5c_relu_inter_branch2c"
  type: "Convolution"
  bottom: "resres5c_relu_inter_branch2b"
  top: "resres5c_relu_inter_branch2c"
  param {
    lr_mult: 1
    decay_mult: 1
  }
  convolution_param {
    num_output: 1024
    bias_term: false
    pad: 0
    kernel_size: 1
    stride: 1
    weight_filler {
      type: "gaussian"
      std: 0.01
    }
  }
}
layer {
  name: "bnres5c_relu_inter_branch2c"
  type: "BatchNorm"
  bottom: "resres5c_relu_inter_branch2c"
  top: "resres5c_relu_inter_branch2c"
}
layer {
  name: "scaleres5c_relu_inter_branch2c"
  type: "Scale"
  bottom: "resres5c_relu_inter_branch2c"
  top: "resres5c_relu_inter_branch2c"
  scale_param {
    bias_term: true
  }
}
layer {
  name: "resres5c_relu_inter"
  type: "Eltwise"
  bottom: "resres5c_relu_inter_branch1"
  bottom: "resres5c_relu_inter_branch2c"
  top: "resres5c_relu_inter"
}
layer {
  name: "resres5c_relu_inter_relu"
  type: "ReLU"
  bottom: "resres5c_relu_inter"
  top: "resres5c_relu_inter"
}
layer {
  name: "resres5c_relu_inter_mbox_loc"
  type: "Convolution"
  bottom: "resres5c_relu_inter"
  top: "resres5c_relu_inter_mbox_loc"
  param {
    lr_mult: 1
    decay_mult: 1
  }
  param {
    lr_mult: 2
    decay_mult: 0
  }
  convolution_param {
    num_output: 12
    pad: 1
    kernel_size: 3
    stride: 1
    weight_filler {
      type: "xavier"
    }
    bias_filler {
      type: "constant"
      value: 0
    }
  }
}
layer {
  name: "resres5c_relu_inter_mbox_loc_perm"
  type: "Permute"
  bottom: "resres5c_relu_inter_mbox_loc"
  top: "resres5c_relu_inter_mbox_loc_perm"
  permute_param {
    order: 0
    order: 2
    order: 3
    order: 1
  }
}
layer {
  name: "resres5c_relu_inter_mbox_loc_flat"
  type: "Flatten"
  bottom: "resres5c_relu_inter_mbox_loc_perm"
  top: "resres5c_relu_inter_mbox_loc_flat"
  flatten_param {
    axis: 1
  }
}
layer {
  name: "resres5c_relu_inter_mbox_conf"
  type: "Convolution"
  bottom: "resres5c_relu_inter"
  top: "resres5c_relu_inter_mbox_conf"
  param {
    lr_mult: 1
    decay_mult: 1
  }
  param {
    lr_mult: 2
    decay_mult: 0
  }
  convolution_param {
    num_output: 6
    pad: 1
    kernel_size: 3
    stride: 1
    weight_filler {
      type: "xavier"
    }
    bias_filler {
      type: "constant"
      value: 0
    }
  }
}
layer {
  name: "resres5c_relu_inter_mbox_conf_perm"
  type: "Permute"
  bottom: "resres5c_relu_inter_mbox_conf"
  top: "resres5c_relu_inter_mbox_conf_perm"
  permute_param {
    order: 0
    order: 2
    order: 3
    order: 1
  }
}
layer {
  name: "resres5c_relu_inter_mbox_conf_flat"
  type: "Flatten"
  bottom: "resres5c_relu_inter_mbox_conf_perm"
  top: "resres5c_relu_inter_mbox_conf_flat"
  flatten_param {
    axis: 1
  }
}
layer {
  name: "resres5c_relu_inter_mbox_priorbox"
  type: "PriorBox"
  bottom: "resres5c_relu_inter"
  bottom: "data"
  top: "resres5c_relu_inter_mbox_priorbox"
  prior_box_param {
    min_size: 128
    aspect_ratio: 2
    flip: true
    clip: false
    variance: 0.1
    variance: 0.1
    variance: 0.2
    variance: 0.2
    step: 32
    offset: 0.5
  }
}
layer {
  name: "resres6_relu_inter_branch1"
  type: "Convolution"
  bottom: "res6"
  top: "resres6_relu_inter_branch1"
  param {
    lr_mult: 1
    decay_mult: 1
  }
  convolution_param {
    num_output: 1024
    bias_term: false
    pad: 0
    kernel_size: 1
    stride: 1
    weight_filler {
      type: "gaussian"
      std: 0.01
    }
  }
}
layer {
  name: "bnres6_relu_inter_branch1"
  type: "BatchNorm"
  bottom: "resres6_relu_inter_branch1"
  top: "resres6_relu_inter_branch1"
}
layer {
  name: "scaleres6_relu_inter_branch1"
  type: "Scale"
  bottom: "resres6_relu_inter_branch1"
  top: "resres6_relu_inter_branch1"
  scale_param {
    bias_term: true
  }
}
layer {
  name: "resres6_relu_inter_branch2a"
  type: "Convolution"
  bottom: "res6"
  top: "resres6_relu_inter_branch2a"
  param {
    lr_mult: 1
    decay_mult: 1
  }
  convolution_param {
    num_output: 256
    bias_term: false
    pad: 0
    kernel_size: 1
    stride: 1
    weight_filler {
      type: "gaussian"
      std: 0.01
    }
  }
}
layer {
  name: "bnres6_relu_inter_branch2a"
  type: "BatchNorm"
  bottom: "resres6_relu_inter_branch2a"
  top: "resres6_relu_inter_branch2a"
}
layer {
  name: "scaleres6_relu_inter_branch2a"
  type: "Scale"
  bottom: "resres6_relu_inter_branch2a"
  top: "resres6_relu_inter_branch2a"
  scale_param {
    bias_term: true
  }
}
layer {
  name: "resres6_relu_inter_branch2a_relu"
  type: "ReLU"
  bottom: "resres6_relu_inter_branch2a"
  top: "resres6_relu_inter_branch2a"
}
layer {
  name: "resres6_relu_inter_branch2b"
  type: "Convolution"
  bottom: "resres6_relu_inter_branch2a"
  top: "resres6_relu_inter_branch2b"
  param {
    lr_mult: 1
    decay_mult: 1
  }
  convolution_param {
    num_output: 256
    bias_term: false
    pad: 1
    kernel_size: 3
    stride: 1
    weight_filler {
      type: "gaussian"
      std: 0.01
    }
  }
}
layer {
  name: "bnres6_relu_inter_branch2b"
  type: "BatchNorm"
  bottom: "resres6_relu_inter_branch2b"
  top: "resres6_relu_inter_branch2b"
}
layer {
  name: "scaleres6_relu_inter_branch2b"
  type: "Scale"
  bottom: "resres6_relu_inter_branch2b"
  top: "resres6_relu_inter_branch2b"
  scale_param {
    bias_term: true
  }
}
layer {
  name: "resres6_relu_inter_branch2b_relu"
  type: "ReLU"
  bottom: "resres6_relu_inter_branch2b"
  top: "resres6_relu_inter_branch2b"
}
layer {
  name: "resres6_relu_inter_branch2c"
  type: "Convolution"
  bottom: "resres6_relu_inter_branch2b"
  top: "resres6_relu_inter_branch2c"
  param {
    lr_mult: 1
    decay_mult: 1
  }
  convolution_param {
    num_output: 1024
    bias_term: false
    pad: 0
    kernel_size: 1
    stride: 1
    weight_filler {
      type: "gaussian"
      std: 0.01
    }
  }
}
layer {
  name: "bnres6_relu_inter_branch2c"
  type: "BatchNorm"
  bottom: "resres6_relu_inter_branch2c"
  top: "resres6_relu_inter_branch2c"
}
layer {
  name: "scaleres6_relu_inter_branch2c"
  type: "Scale"
  bottom: "resres6_relu_inter_branch2c"
  top: "resres6_relu_inter_branch2c"
  scale_param {
    bias_term: true
  }
}
layer {
  name: "resres6_relu_inter"
  type: "Eltwise"
  bottom: "resres6_relu_inter_branch1"
  bottom: "resres6_relu_inter_branch2c"
  top: "resres6_relu_inter"
}
layer {
  name: "resres6_relu_inter_relu"
  type: "ReLU"
  bottom: "resres6_relu_inter"
  top: "resres6_relu_inter"
}
layer {
  name: "resres6_relu_inter_mbox_loc"
  type: "Convolution"
  bottom: "resres6_relu_inter"
  top: "resres6_relu_inter_mbox_loc"
  param {
    lr_mult: 1
    decay_mult: 1
  }
  param {
    lr_mult: 2
    decay_mult: 0
  }
  convolution_param {
    num_output: 12
    pad: 1
    kernel_size: 3
    stride: 1
    weight_filler {
      type: "xavier"
    }
    bias_filler {
      type: "constant"
      value: 0
    }
  }
}
layer {
  name: "resres6_relu_inter_mbox_loc_perm"
  type: "Permute"
  bottom: "resres6_relu_inter_mbox_loc"
  top: "resres6_relu_inter_mbox_loc_perm"
  permute_param {
    order: 0
    order: 2
    order: 3
    order: 1
  }
}
layer {
  name: "resres6_relu_inter_mbox_loc_flat"
  type: "Flatten"
  bottom: "resres6_relu_inter_mbox_loc_perm"
  top: "resres6_relu_inter_mbox_loc_flat"
  flatten_param {
    axis: 1
  }
}
layer {
  name: "resres6_relu_inter_mbox_conf"
  type: "Convolution"
  bottom: "resres6_relu_inter"
  top: "resres6_relu_inter_mbox_conf"
  param {
    lr_mult: 1
    decay_mult: 1
  }
  param {
    lr_mult: 2
    decay_mult: 0
  }
  convolution_param {
    num_output: 6
    pad: 1
    kernel_size: 3
    stride: 1
    weight_filler {
      type: "xavier"
    }
    bias_filler {
      type: "constant"
      value: 0
    }
  }
}
layer {
  name: "resres6_relu_inter_mbox_conf_perm"
  type: "Permute"
  bottom: "resres6_relu_inter_mbox_conf"
  top: "resres6_relu_inter_mbox_conf_perm"
  permute_param {
    order: 0
    order: 2
    order: 3
    order: 1
  }
}
layer {
  name: "resres6_relu_inter_mbox_conf_flat"
  type: "Flatten"
  bottom: "resres6_relu_inter_mbox_conf_perm"
  top: "resres6_relu_inter_mbox_conf_flat"
  flatten_param {
    axis: 1
  }
}
layer {
  name: "resres6_relu_inter_mbox_priorbox"
  type: "PriorBox"
  bottom: "resres6_relu_inter"
  bottom: "data"
  top: "resres6_relu_inter_mbox_priorbox"
  prior_box_param {
    min_size: 256
    aspect_ratio: 2
    flip: true
    clip: false
    variance: 0.1
    variance: 0.1
    variance: 0.2
    variance: 0.2
    step: 64
    offset: 0.5
  }
}
layer {
  name: "arm_loc"
  type: "Concat"
  bottom: "resres3b3_relu_inter_mbox_loc_flat"
  bottom: "resres4b22_relu_inter_mbox_loc_flat"
  bottom: "resres5c_relu_inter_mbox_loc_flat"
  bottom: "resres6_relu_inter_mbox_loc_flat"
  top: "arm_loc"
  concat_param {
    axis: 1
  }
}
layer {
  name: "arm_conf"
  type: "Concat"
  bottom: "resres3b3_relu_inter_mbox_conf_flat"
  bottom: "resres4b22_relu_inter_mbox_conf_flat"
  bottom: "resres5c_relu_inter_mbox_conf_flat"
  bottom: "resres6_relu_inter_mbox_conf_flat"
  top: "arm_conf"
  concat_param {
    axis: 1
  }
}
layer {
  name: "arm_priorbox"
  type: "Concat"
  bottom: "resres3b3_relu_inter_mbox_priorbox"
  bottom: "resres4b22_relu_inter_mbox_priorbox"
  bottom: "resres5c_relu_inter_mbox_priorbox"
  bottom: "resres6_relu_inter_mbox_priorbox"
  top: "arm_priorbox"
  concat_param {
    axis: 2
  }
}
layer {
  name: "resP3_inter_branch1"
  type: "Convolution"
  bottom: "P3"
  top: "resP3_inter_branch1"
  param {
    lr_mult: 1
    decay_mult: 1
  }
  convolution_param {
    num_output: 1024
    bias_term: false
    pad: 0
    kernel_size: 1
    stride: 1
    weight_filler {
      type: "gaussian"
      std: 0.01
    }
  }
}
layer {
  name: "bnP3_inter_branch1"
  type: "BatchNorm"
  bottom: "resP3_inter_branch1"
  top: "resP3_inter_branch1"
}
layer {
  name: "scaleP3_inter_branch1"
  type: "Scale"
  bottom: "resP3_inter_branch1"
  top: "resP3_inter_branch1"
  scale_param {
    bias_term: true
  }
}
layer {
  name: "resP3_inter_branch2a"
  type: "Convolution"
  bottom: "P3"
  top: "resP3_inter_branch2a"
  param {
    lr_mult: 1
    decay_mult: 1
  }
  convolution_param {
    num_output: 256
    bias_term: false
    pad: 0
    kernel_size: 1
    stride: 1
    weight_filler {
      type: "gaussian"
      std: 0.01
    }
  }
}
layer {
  name: "bnP3_inter_branch2a"
  type: "BatchNorm"
  bottom: "resP3_inter_branch2a"
  top: "resP3_inter_branch2a"
}
layer {
  name: "scaleP3_inter_branch2a"
  type: "Scale"
  bottom: "resP3_inter_branch2a"
  top: "resP3_inter_branch2a"
  scale_param {
    bias_term: true
  }
}
layer {
  name: "resP3_inter_branch2a_relu"
  type: "ReLU"
  bottom: "resP3_inter_branch2a"
  top: "resP3_inter_branch2a"
}
layer {
  name: "resP3_inter_branch2b"
  type: "Convolution"
  bottom: "resP3_inter_branch2a"
  top: "resP3_inter_branch2b"
  param {
    lr_mult: 1
    decay_mult: 1
  }
  convolution_param {
    num_output: 256
    bias_term: false
    pad: 1
    kernel_size: 3
    stride: 1
    weight_filler {
      type: "gaussian"
      std: 0.01
    }
  }
}
layer {
  name: "bnP3_inter_branch2b"
  type: "BatchNorm"
  bottom: "resP3_inter_branch2b"
  top: "resP3_inter_branch2b"
}
layer {
  name: "scaleP3_inter_branch2b"
  type: "Scale"
  bottom: "resP3_inter_branch2b"
  top: "resP3_inter_branch2b"
  scale_param {
    bias_term: true
  }
}
layer {
  name: "resP3_inter_branch2b_relu"
  type: "ReLU"
  bottom: "resP3_inter_branch2b"
  top: "resP3_inter_branch2b"
}
layer {
  name: "resP3_inter_branch2c"
  type: "Convolution"
  bottom: "resP3_inter_branch2b"
  top: "resP3_inter_branch2c"
  param {
    lr_mult: 1
    decay_mult: 1
  }
  convolution_param {
    num_output: 1024
    bias_term: false
    pad: 0
    kernel_size: 1
    stride: 1
    weight_filler {
      type: "gaussian"
      std: 0.01
    }
  }
}
layer {
  name: "bnP3_inter_branch2c"
  type: "BatchNorm"
  bottom: "resP3_inter_branch2c"
  top: "resP3_inter_branch2c"
}
layer {
  name: "scaleP3_inter_branch2c"
  type: "Scale"
  bottom: "resP3_inter_branch2c"
  top: "resP3_inter_branch2c"
  scale_param {
    bias_term: true
  }
}
layer {
  name: "resP3_inter"
  type: "Eltwise"
  bottom: "resP3_inter_branch1"
  bottom: "resP3_inter_branch2c"
  top: "resP3_inter"
}
layer {
  name: "resP3_inter_relu"
  type: "ReLU"
  bottom: "resP3_inter"
  top: "resP3_inter"
}
layer {
  name: "resP3_inter_mbox_loc"
  type: "Convolution"
  bottom: "resP3_inter"
  top: "resP3_inter_mbox_loc"
  param {
    lr_mult: 1
    decay_mult: 1
  }
  param {
    lr_mult: 2
    decay_mult: 0
  }
  convolution_param {
    num_output: 12
    pad: 1
    kernel_size: 3
    stride: 1
    weight_filler {
      type: "xavier"
    }
    bias_filler {
      type: "constant"
      value: 0
    }
  }
}
layer {
  name: "resP3_inter_mbox_loc_perm"
  type: "Permute"
  bottom: "resP3_inter_mbox_loc"
  top: "resP3_inter_mbox_loc_perm"
  permute_param {
    order: 0
    order: 2
    order: 3
    order: 1
  }
}
layer {
  name: "resP3_inter_mbox_loc_flat"
  type: "Flatten"
  bottom: "resP3_inter_mbox_loc_perm"
  top: "resP3_inter_mbox_loc_flat"
  flatten_param {
    axis: 1
  }
}
layer {
  name: "resP3_inter_mbox_conf"
  type: "Convolution"
  bottom: "resP3_inter"
  top: "resP3_inter_mbox_conf"
  param {
    lr_mult: 1
    decay_mult: 1
  }
  param {
    lr_mult: 2
    decay_mult: 0
  }
  convolution_param {
    num_output: 252
    pad: 1
    kernel_size: 3
    stride: 1
    weight_filler {
      type: "xavier"
    }
    bias_filler {
      type: "constant"
      value: 0
    }
  }
}
layer {
  name: "resP3_inter_mbox_conf_perm"
  type: "Permute"
  bottom: "resP3_inter_mbox_conf"
  top: "resP3_inter_mbox_conf_perm"
  permute_param {
    order: 0
    order: 2
    order: 3
    order: 1
  }
}
layer {
  name: "resP3_inter_mbox_conf_flat"
  type: "Flatten"
  bottom: "resP3_inter_mbox_conf_perm"
  top: "resP3_inter_mbox_conf_flat"
  flatten_param {
    axis: 1
  }
}
layer {
  name: "resP4_inter_branch1"
  type: "Convolution"
  bottom: "P4"
  top: "resP4_inter_branch1"
  param {
    lr_mult: 1
    decay_mult: 1
  }
  convolution_param {
    num_output: 1024
    bias_term: false
    pad: 0
    kernel_size: 1
    stride: 1
    weight_filler {
      type: "gaussian"
      std: 0.01
    }
  }
}
layer {
  name: "bnP4_inter_branch1"
  type: "BatchNorm"
  bottom: "resP4_inter_branch1"
  top: "resP4_inter_branch1"
}
layer {
  name: "scaleP4_inter_branch1"
  type: "Scale"
  bottom: "resP4_inter_branch1"
  top: "resP4_inter_branch1"
  scale_param {
    bias_term: true
  }
}
layer {
  name: "resP4_inter_branch2a"
  type: "Convolution"
  bottom: "P4"
  top: "resP4_inter_branch2a"
  param {
    lr_mult: 1
    decay_mult: 1
  }
  convolution_param {
    num_output: 256
    bias_term: false
    pad: 0
    kernel_size: 1
    stride: 1
    weight_filler {
      type: "gaussian"
      std: 0.01
    }
  }
}
layer {
  name: "bnP4_inter_branch2a"
  type: "BatchNorm"
  bottom: "resP4_inter_branch2a"
  top: "resP4_inter_branch2a"
}
layer {
  name: "scaleP4_inter_branch2a"
  type: "Scale"
  bottom: "resP4_inter_branch2a"
  top: "resP4_inter_branch2a"
  scale_param {
    bias_term: true
  }
}
layer {
  name: "resP4_inter_branch2a_relu"
  type: "ReLU"
  bottom: "resP4_inter_branch2a"
  top: "resP4_inter_branch2a"
}
layer {
  name: "resP4_inter_branch2b"
  type: "Convolution"
  bottom: "resP4_inter_branch2a"
  top: "resP4_inter_branch2b"
  param {
    lr_mult: 1
    decay_mult: 1
  }
  convolution_param {
    num_output: 256
    bias_term: false
    pad: 1
    kernel_size: 3
    stride: 1
    weight_filler {
      type: "gaussian"
      std: 0.01
    }
  }
}
layer {
  name: "bnP4_inter_branch2b"
  type: "BatchNorm"
  bottom: "resP4_inter_branch2b"
  top: "resP4_inter_branch2b"
}
layer {
  name: "scaleP4_inter_branch2b"
  type: "Scale"
  bottom: "resP4_inter_branch2b"
  top: "resP4_inter_branch2b"
  scale_param {
    bias_term: true
  }
}
layer {
  name: "resP4_inter_branch2b_relu"
  type: "ReLU"
  bottom: "resP4_inter_branch2b"
  top: "resP4_inter_branch2b"
}
layer {
  name: "resP4_inter_branch2c"
  type: "Convolution"
  bottom: "resP4_inter_branch2b"
  top: "resP4_inter_branch2c"
  param {
    lr_mult: 1
    decay_mult: 1
  }
  convolution_param {
    num_output: 1024
    bias_term: false
    pad: 0
    kernel_size: 1
    stride: 1
    weight_filler {
      type: "gaussian"
      std: 0.01
    }
  }
}
layer {
  name: "bnP4_inter_branch2c"
  type: "BatchNorm"
  bottom: "resP4_inter_branch2c"
  top: "resP4_inter_branch2c"
}
layer {
  name: "scaleP4_inter_branch2c"
  type: "Scale"
  bottom: "resP4_inter_branch2c"
  top: "resP4_inter_branch2c"
  scale_param {
    bias_term: true
  }
}
layer {
  name: "resP4_inter"
  type: "Eltwise"
  bottom: "resP4_inter_branch1"
  bottom: "resP4_inter_branch2c"
  top: "resP4_inter"
}
layer {
  name: "resP4_inter_relu"
  type: "ReLU"
  bottom: "resP4_inter"
  top: "resP4_inter"
}
layer {
  name: "resP4_inter_mbox_loc"
  type: "Convolution"
  bottom: "resP4_inter"
  top: "resP4_inter_mbox_loc"
  param {
    lr_mult: 1
    decay_mult: 1
  }
  param {
    lr_mult: 2
    decay_mult: 0
  }
  convolution_param {
    num_output: 12
    pad: 1
    kernel_size: 3
    stride: 1
    weight_filler {
      type: "xavier"
    }
    bias_filler {
      type: "constant"
      value: 0
    }
  }
}
layer {
  name: "resP4_inter_mbox_loc_perm"
  type: "Permute"
  bottom: "resP4_inter_mbox_loc"
  top: "resP4_inter_mbox_loc_perm"
  permute_param {
    order: 0
    order: 2
    order: 3
    order: 1
  }
}
layer {
  name: "resP4_inter_mbox_loc_flat"
  type: "Flatten"
  bottom: "resP4_inter_mbox_loc_perm"
  top: "resP4_inter_mbox_loc_flat"
  flatten_param {
    axis: 1
  }
}
layer {
  name: "resP4_inter_mbox_conf"
  type: "Convolution"
  bottom: "resP4_inter"
  top: "resP4_inter_mbox_conf"
  param {
    lr_mult: 1
    decay_mult: 1
  }
  param {
    lr_mult: 2
    decay_mult: 0
  }
  convolution_param {
    num_output: 252
    pad: 1
    kernel_size: 3
    stride: 1
    weight_filler {
      type: "xavier"
    }
    bias_filler {
      type: "constant"
      value: 0
    }
  }
}
layer {
  name: "resP4_inter_mbox_conf_perm"
  type: "Permute"
  bottom: "resP4_inter_mbox_conf"
  top: "resP4_inter_mbox_conf_perm"
  permute_param {
    order: 0
    order: 2
    order: 3
    order: 1
  }
}
layer {
  name: "resP4_inter_mbox_conf_flat"
  type: "Flatten"
  bottom: "resP4_inter_mbox_conf_perm"
  top: "resP4_inter_mbox_conf_flat"
  flatten_param {
    axis: 1
  }
}
layer {
  name: "resP5_inter_branch1"
  type: "Convolution"
  bottom: "P5"
  top: "resP5_inter_branch1"
  param {
    lr_mult: 1
    decay_mult: 1
  }
  convolution_param {
    num_output: 1024
    bias_term: false
    pad: 0
    kernel_size: 1
    stride: 1
    weight_filler {
      type: "gaussian"
      std: 0.01
    }
  }
}
layer {
  name: "bnP5_inter_branch1"
  type: "BatchNorm"
  bottom: "resP5_inter_branch1"
  top: "resP5_inter_branch1"
}
layer {
  name: "scaleP5_inter_branch1"
  type: "Scale"
  bottom: "resP5_inter_branch1"
  top: "resP5_inter_branch1"
  scale_param {
    bias_term: true
  }
}
layer {
  name: "resP5_inter_branch2a"
  type: "Convolution"
  bottom: "P5"
  top: "resP5_inter_branch2a"
  param {
    lr_mult: 1
    decay_mult: 1
  }
  convolution_param {
    num_output: 256
    bias_term: false
    pad: 0
    kernel_size: 1
    stride: 1
    weight_filler {
      type: "gaussian"
      std: 0.01
    }
  }
}
layer {
  name: "bnP5_inter_branch2a"
  type: "BatchNorm"
  bottom: "resP5_inter_branch2a"
  top: "resP5_inter_branch2a"
}
layer {
  name: "scaleP5_inter_branch2a"
  type: "Scale"
  bottom: "resP5_inter_branch2a"
  top: "resP5_inter_branch2a"
  scale_param {
    bias_term: true
  }
}
layer {
  name: "resP5_inter_branch2a_relu"
  type: "ReLU"
  bottom: "resP5_inter_branch2a"
  top: "resP5_inter_branch2a"
}
layer {
  name: "resP5_inter_branch2b"
  type: "Convolution"
  bottom: "resP5_inter_branch2a"
  top: "resP5_inter_branch2b"
  param {
    lr_mult: 1
    decay_mult: 1
  }
  convolution_param {
    num_output: 256
    bias_term: false
    pad: 1
    kernel_size: 3
    stride: 1
    weight_filler {
      type: "gaussian"
      std: 0.01
    }
  }
}
layer {
  name: "bnP5_inter_branch2b"
  type: "BatchNorm"
  bottom: "resP5_inter_branch2b"
  top: "resP5_inter_branch2b"
}
layer {
  name: "scaleP5_inter_branch2b"
  type: "Scale"
  bottom: "resP5_inter_branch2b"
  top: "resP5_inter_branch2b"
  scale_param {
    bias_term: true
  }
}
layer {
  name: "resP5_inter_branch2b_relu"
  type: "ReLU"
  bottom: "resP5_inter_branch2b"
  top: "resP5_inter_branch2b"
}
layer {
  name: "resP5_inter_branch2c"
  type: "Convolution"
  bottom: "resP5_inter_branch2b"
  top: "resP5_inter_branch2c"
  param {
    lr_mult: 1
    decay_mult: 1
  }
  convolution_param {
    num_output: 1024
    bias_term: false
    pad: 0
    kernel_size: 1
    stride: 1
    weight_filler {
      type: "gaussian"
      std: 0.01
    }
  }
}
layer {
  name: "bnP5_inter_branch2c"
  type: "BatchNorm"
  bottom: "resP5_inter_branch2c"
  top: "resP5_inter_branch2c"
}
layer {
  name: "scaleP5_inter_branch2c"
  type: "Scale"
  bottom: "resP5_inter_branch2c"
  top: "resP5_inter_branch2c"
  scale_param {
    bias_term: true
  }
}
layer {
  name: "resP5_inter"
  type: "Eltwise"
  bottom: "resP5_inter_branch1"
  bottom: "resP5_inter_branch2c"
  top: "resP5_inter"
}
layer {
  name: "resP5_inter_relu"
  type: "ReLU"
  bottom: "resP5_inter"
  top: "resP5_inter"
}
layer {
  name: "resP5_inter_mbox_loc"
  type: "Convolution"
  bottom: "resP5_inter"
  top: "resP5_inter_mbox_loc"
  param {
    lr_mult: 1
    decay_mult: 1
  }
  param {
    lr_mult: 2
    decay_mult: 0
  }
  convolution_param {
    num_output: 12
    pad: 1
    kernel_size: 3
    stride: 1
    weight_filler {
      type: "xavier"
    }
    bias_filler {
      type: "constant"
      value: 0
    }
  }
}
layer {
  name: "resP5_inter_mbox_loc_perm"
  type: "Permute"
  bottom: "resP5_inter_mbox_loc"
  top: "resP5_inter_mbox_loc_perm"
  permute_param {
    order: 0
    order: 2
    order: 3
    order: 1
  }
}
layer {
  name: "resP5_inter_mbox_loc_flat"
  type: "Flatten"
  bottom: "resP5_inter_mbox_loc_perm"
  top: "resP5_inter_mbox_loc_flat"
  flatten_param {
    axis: 1
  }
}
layer {
  name: "resP5_inter_mbox_conf"
  type: "Convolution"
  bottom: "resP5_inter"
  top: "resP5_inter_mbox_conf"
  param {
    lr_mult: 1
    decay_mult: 1
  }
  param {
    lr_mult: 2
    decay_mult: 0
  }
  convolution_param {
    num_output: 252
    pad: 1
    kernel_size: 3
    stride: 1
    weight_filler {
      type: "xavier"
    }
    bias_filler {
      type: "constant"
      value: 0
    }
  }
}
layer {
  name: "resP5_inter_mbox_conf_perm"
  type: "Permute"
  bottom: "resP5_inter_mbox_conf"
  top: "resP5_inter_mbox_conf_perm"
  permute_param {
    order: 0
    order: 2
    order: 3
    order: 1
  }
}
layer {
  name: "resP5_inter_mbox_conf_flat"
  type: "Flatten"
  bottom: "resP5_inter_mbox_conf_perm"
  top: "resP5_inter_mbox_conf_flat"
  flatten_param {
    axis: 1
  }
}
layer {
  name: "resP6_inter_branch1"
  type: "Convolution"
  bottom: "P6"
  top: "resP6_inter_branch1"
  param {
    lr_mult: 1
    decay_mult: 1
  }
  convolution_param {
    num_output: 1024
    bias_term: false
    pad: 0
    kernel_size: 1
    stride: 1
    weight_filler {
      type: "gaussian"
      std: 0.01
    }
  }
}
layer {
  name: "bnP6_inter_branch1"
  type: "BatchNorm"
  bottom: "resP6_inter_branch1"
  top: "resP6_inter_branch1"
}
layer {
  name: "scaleP6_inter_branch1"
  type: "Scale"
  bottom: "resP6_inter_branch1"
  top: "resP6_inter_branch1"
  scale_param {
    bias_term: true
  }
}
layer {
  name: "resP6_inter_branch2a"
  type: "Convolution"
  bottom: "P6"
  top: "resP6_inter_branch2a"
  param {
    lr_mult: 1
    decay_mult: 1
  }
  convolution_param {
    num_output: 256
    bias_term: false
    pad: 0
    kernel_size: 1
    stride: 1
    weight_filler {
      type: "gaussian"
      std: 0.01
    }
  }
}
layer {
  name: "bnP6_inter_branch2a"
  type: "BatchNorm"
  bottom: "resP6_inter_branch2a"
  top: "resP6_inter_branch2a"
}
layer {
  name: "scaleP6_inter_branch2a"
  type: "Scale"
  bottom: "resP6_inter_branch2a"
  top: "resP6_inter_branch2a"
  scale_param {
    bias_term: true
  }
}
layer {
  name: "resP6_inter_branch2a_relu"
  type: "ReLU"
  bottom: "resP6_inter_branch2a"
  top: "resP6_inter_branch2a"
}
layer {
  name: "resP6_inter_branch2b"
  type: "Convolution"
  bottom: "resP6_inter_branch2a"
  top: "resP6_inter_branch2b"
  param {
    lr_mult: 1
    decay_mult: 1
  }
  convolution_param {
    num_output: 256
    bias_term: false
    pad: 1
    kernel_size: 3
    stride: 1
    weight_filler {
      type: "gaussian"
      std: 0.01
    }
  }
}
layer {
  name: "bnP6_inter_branch2b"
  type: "BatchNorm"
  bottom: "resP6_inter_branch2b"
  top: "resP6_inter_branch2b"
}
layer {
  name: "scaleP6_inter_branch2b"
  type: "Scale"
  bottom: "resP6_inter_branch2b"
  top: "resP6_inter_branch2b"
  scale_param {
    bias_term: true
  }
}
layer {
  name: "resP6_inter_branch2b_relu"
  type: "ReLU"
  bottom: "resP6_inter_branch2b"
  top: "resP6_inter_branch2b"
}
layer {
  name: "resP6_inter_branch2c"
  type: "Convolution"
  bottom: "resP6_inter_branch2b"
  top: "resP6_inter_branch2c"
  param {
    lr_mult: 1
    decay_mult: 1
  }
  convolution_param {
    num_output: 1024
    bias_term: false
    pad: 0
    kernel_size: 1
    stride: 1
    weight_filler {
      type: "gaussian"
      std: 0.01
    }
  }
}
layer {
  name: "bnP6_inter_branch2c"
  type: "BatchNorm"
  bottom: "resP6_inter_branch2c"
  top: "resP6_inter_branch2c"
}
layer {
  name: "scaleP6_inter_branch2c"
  type: "Scale"
  bottom: "resP6_inter_branch2c"
  top: "resP6_inter_branch2c"
  scale_param {
    bias_term: true
  }
}
layer {
  name: "resP6_inter"
  type: "Eltwise"
  bottom: "resP6_inter_branch1"
  bottom: "resP6_inter_branch2c"
  top: "resP6_inter"
}
layer {
  name: "resP6_inter_relu"
  type: "ReLU"
  bottom: "resP6_inter"
  top: "resP6_inter"
}
layer {
  name: "resP6_inter_mbox_loc"
  type: "Convolution"
  bottom: "resP6_inter"
  top: "resP6_inter_mbox_loc"
  param {
    lr_mult: 1
    decay_mult: 1
  }
  param {
    lr_mult: 2
    decay_mult: 0
  }
  convolution_param {
    num_output: 12
    pad: 1
    kernel_size: 3
    stride: 1
    weight_filler {
      type: "xavier"
    }
    bias_filler {
      type: "constant"
      value: 0
    }
  }
}
layer {
  name: "resP6_inter_mbox_loc_perm"
  type: "Permute"
  bottom: "resP6_inter_mbox_loc"
  top: "resP6_inter_mbox_loc_perm"
  permute_param {
    order: 0
    order: 2
    order: 3
    order: 1
  }
}
layer {
  name: "resP6_inter_mbox_loc_flat"
  type: "Flatten"
  bottom: "resP6_inter_mbox_loc_perm"
  top: "resP6_inter_mbox_loc_flat"
  flatten_param {
    axis: 1
  }
}
layer {
  name: "resP6_inter_mbox_conf"
  type: "Convolution"
  bottom: "resP6_inter"
  top: "resP6_inter_mbox_conf"
  param {
    lr_mult: 1
    decay_mult: 1
  }
  param {
    lr_mult: 2
    decay_mult: 0
  }
  convolution_param {
    num_output: 252
    pad: 1
    kernel_size: 3
    stride: 1
    weight_filler {
      type: "xavier"
    }
    bias_filler {
      type: "constant"
      value: 0
    }
  }
}
layer {
  name: "resP6_inter_mbox_conf_perm"
  type: "Permute"
  bottom: "resP6_inter_mbox_conf"
  top: "resP6_inter_mbox_conf_perm"
  permute_param {
    order: 0
    order: 2
    order: 3
    order: 1
  }
}
layer {
  name: "resP6_inter_mbox_conf_flat"
  type: "Flatten"
  bottom: "resP6_inter_mbox_conf_perm"
  top: "resP6_inter_mbox_conf_flat"
  flatten_param {
    axis: 1
  }
}
layer {
  name: "odm_loc"
  type: "Concat"
  bottom: "resP3_inter_mbox_loc_flat"
  bottom: "resP4_inter_mbox_loc_flat"
  bottom: "resP5_inter_mbox_loc_flat"
  bottom: "resP6_inter_mbox_loc_flat"
  top: "odm_loc"
  concat_param {
    axis: 1
  }
}
layer {
  name: "odm_conf"
  type: "Concat"
  bottom: "resP3_inter_mbox_conf_flat"
  bottom: "resP4_inter_mbox_conf_flat"
  bottom: "resP5_inter_mbox_conf_flat"
  bottom: "resP6_inter_mbox_conf_flat"
  top: "odm_conf"
  concat_param {
    axis: 1
  }
}
layer {
  name: "arm_conf_reshape"
  type: "Reshape"
  bottom: "arm_conf"
  top: "arm_conf_reshape"
  reshape_param {
    shape {
      dim: 0
      dim: -1
      dim: 2
    }
  }
}
layer {
  name: "arm_conf_softmax"
  type: "Softmax"
  bottom: "arm_conf_reshape"
  top: "arm_conf_softmax"
  softmax_param {
    axis: 2
  }
}
layer {
  name: "arm_conf_flatten"
  type: "Flatten"
  bottom: "arm_conf_softmax"
  top: "arm_conf_flatten"
  flatten_param {
    axis: 1
  }
}
layer {
  name: "odm_conf_reshape"
  type: "Reshape"
  bottom: "odm_conf"
  top: "odm_conf_reshape"
  reshape_param {
    shape {
      dim: 0
      dim: -1
      dim: 84
    }
  }
}
layer {
  name: "odm_conf_softmax"
  type: "Softmax"
  bottom: "odm_conf_reshape"
  top: "odm_conf_softmax"
  softmax_param {
    axis: 2
  }
}
layer {
  name: "odm_conf_flatten"
  type: "Flatten"
  bottom: "odm_conf_softmax"
  top: "odm_conf_flatten"
  flatten_param {
    axis: 1
  }
}
layer {
  name: "detection_out"
  type: "DetectionOutput"
  bottom: "odm_loc"
  bottom: "odm_conf_flatten"
  bottom: "arm_priorbox"
  bottom: "arm_conf_flatten"
  bottom: "arm_loc"
  top: "detection_out"
  include {
    phase: TEST
  }
  detection_output_param {
    num_classes: 84
    share_location: true
    background_label_id: 0
    nms_param {
      nms_threshold: 0.3
      top_k: 1000
    }
    code_type: CENTER_SIZE
    keep_top_k: 500
    confidence_threshold: 0.6
    objectness_score: 0.25
  }
}

